envs/runs/22-03-17_09-31-46-056018_PPO/checkpoints/1000_policy.pt (torch, 7251 bytes, 5 tensors)

linear_layer_1.weight f4 [32, 4]
000000 ec b9 ed 3d 38 4e e7 bc ef 94 83 be 28 ee ae bd
       0.116077274 -0.02823554 -0.25699565 -0.085415184
000010 5a 5e f6 3d 02 bd 73 be 60 62 e4 3e d7 1c 28 3d
       0.12029715 -0.2380257 0.44606304 0.04104313
000020 f7 23 0d 3d 12 ff 02 bd bf 65 b8 3e 88 1c 1e 3e
       0.034458127 -0.031981535 0.36015126 0.15440571
000030 24 78 11 be 57 cf e2 3d 1b 5f 00 bf f2 03 cf bd
       -0.14205986 0.11074703 -0.5014512 -0.101081744
000040 d1 fe 5f be ac 15 97 be f0 9f 46 3f a2 9e c3 3d
       -0.21874548 -0.29508722 0.77587795 0.09551741
000050 2c 60 6d 3a 7c 6e f4 3d 4a b8 05 bf 27 67 dc bd
       0.0009055163 0.11935136 -0.5223433 -0.10761862
000060 3c 8c 85 3e 90 d5 99 3d 14 ec dd be e8 1a 68 3d
       0.26083553 0.07511437 -0.43344176 0.056666285
000070 64 8a 40 bc 22 3e 90 bd 82 9c 91 3e 10 fe 12 3e
       -0.011751745 -0.07043101 0.28439718 0.1435473
000080 01 f8 a1 3c bd c4 88 bc 9c 09 bd be bf 56 2e be
       0.019771578 -0.016695375 -0.36921394 -0.17025279
000090 2c 22 13 3e 3d 86 fb bd cd 0d 84 3e 03 7c a0 3e
       0.14368504 -0.12281463 0.2579178 0.31344613
0000a0 95 00 68 3d 2a c3 f3 3d 0c b2 0f be a8 f5 3a be
       0.05664118 0.11902459 -0.14032763 -0.18257773
0000b0 55 7b 7f 3a 54 ed 2f be ae fc aa be d3 79 0f be
       0.0009745856 -0.17180377 -0.33395904 -0.14011316
0000c0 54 e2 a4 bc 0a 5b a8 3d 4d b1 71 3e e2 77 25 3d
       -0.020127453 0.08220489 0.23602791 0.040397532
0000d0 5c 7f 28 3d af a7 69 bd 46 a7 d0 3e 0a ef 08 3e
       0.041137084 -0.05704468 0.4075262 0.13372436
0000e0 f6 8c 66 bd 04 f5 17 3d 76 5a e5 3e 1a 86 0f 3e
       -0.056286775 0.0370989 0.4479558 0.14016
0000f0 25 f2 34 3d 1a d3 d2 3b 56 98 f0 be 19 fd 16 be
       0.04417624 0.0064338567 -0.46991223 -0.14744987
000100 3a 12 ae 3c 4f 0c ab bc 51 27 cd be ee 50 44 be
       0.021248925 -0.020879893 -0.4006906 -0.19171497
000110 ab 20 ea 3e ff 8a ba 3d 58 a3 15 bf 2f d6 ce bb
       0.4572805 0.09108543 -0.5845237 -0.006312154
000120 90 e4 3c 3d 29 6e 18 bd dc 13 5a 3e 40 21 2d 3e
       0.04611641 -0.037214432 0.21296638 0.16907215
000130 90 16 ab bd 0b 66 66 3d af 0e 9b 3e e4 04 88 3c
       -0.08353913 0.05624966 0.3028464 0.016603895
000140 2c 26 6a bc 27 c1 a5 3a 0d 67 c1 be e8 5f a8 bd
       -0.014291327 0.0012646065 -0.37773934 -0.08221418
000150 11 bf 48 be da f7 3b be bb 26 fb 3e 59 16 32 bb
       -0.19604136 -0.18356267 0.49052987 -0.0027173965
000160 cf 78 bc bd 31 25 8b 3d db 8a 73 3d 2e f5 64 3e
       -0.0920273 0.06794203 0.059458595 0.22359154
000170 b5 a8 02 be f9 52 f9 3b 0c 16 f6 3e 1a 52 3d bc
       -0.12759669 0.007608768 0.48063695 -0.011555219
000180 10 82 90 bd ec 5c 1b 3d 68 65 e6 3e fc 2e 0e bd
       -0.070560575 0.037930414 0.44999242 -0.034712777
000190 45 4b 1b be d0 40 b4 3d 31 5f 8c be 7f 36 95 bb
       -0.15165432 0.088014245 -0.27416375 -0.0045536156
0001a0 4d be 89 bd 0e 2e 84 3d 0e f9 fd be a4 72 7f be
       -0.0672575 0.06454097 -0.49604076 -0.24946076
0001b0 09 bd d1 bd ca b2 d5 3d 1c 33 df bd 98 76 9f bd
       -0.10241134 0.10434492 -0.1089842 -0.07786292
0001c0 e0 0d ad 3c c0 94 d1 3c ea 08 8c bc 96 c5 31 be
       0.02112478 0.025583625 -0.017094094 -0.1736053
0001d0 e6 39 ae 3d 1f 08 a1 bd 5a b8 1c 3e 7d fa d7 bd
       0.08507137 -0.07862877 0.153047 -0.10545824
0001e0 1c e2 93 bc 9e ee c2 3d b6 1d 40 be 93 f4 1e be
       -0.018052153 0.09518169 -0.18761334 -0.15522985
0001f0 5d 1d 84 bc 30 e1 b5 3c 40 76 77 3e 1c 1b 81 3e
       -0.016127283 0.022202104 0.24166203 0.25215995

linear_layer_1.bias f4 [32]
000000 d6 90 e9 bd a4 98 b8 3c 62 48 05 3e 0c ff c7 3d
       -0.114045784 0.022533722 0.13015893 0.09765443
000010 ab b1 37 3e 36 6d c7 3d 34 93 74 3e 96 62 a7 bd
       0.17938869 0.09737627 0.23884279 -0.08173101
000020 a9 f2 51 3e a4 ec 40 3e eb ed 6d 3e 00 41 82 3d
       0.20502724 0.18840271 0.2323529 0.06360054
000030 c9 e9 6a be e2 d7 f1 3d 31 e3 42 3e f5 88 58 bd
       -0.22940744 0.118087545 0.19031979 -0.052864987
000040 d7 07 81 bc 0f a5 df 3d 17 6e 86 bd 81 51 46 bc
       -0.015750809 0.10920154 -0.06563967 -0.012104393
000050 6b 62 58 3d 37 ad 03 be ba 09 45 3e de b0 1b 3e
       0.052828234 -0.12859045 0.19241992 0.15204188
000060 06 47 8f 3d 2b 4d 94 3a 93 90 83 3d a2 4d 22 3d
       0.069959685 0.0011314502 0.0642406 0.039624818
000070 24 2e 18 bd 47 74 46 bc b0 d6 e2 bc 70 47 8a 3d
       -0.037153378 -0.012112684 -0.027690262 0.06751907

linear_layer_2.weight f4 [32, 32]
000000 f6 18 fd bd ae 35 11 3e 45 51 6e bb 70 57 9a be
       -0.123582765 0.14180633 -0.0036364358 -0.30144835
000010 4d ca 28 3e 6e 5a a8 be ad b5 19 3d 29 c7 91 3e
       0.16483422 -0.32881492 0.037526775 0.2847226
000020 12 f5 68 3d 2a 7a d6 3d 6e 59 81 be a4 a6 ff bd
       0.056874342 0.1047252 -0.25263542 -0.12482956
000030 51 73 db 3d 4f f5 93 3d fc 3c e7 3d 41 64 f7 3c
       0.10715354 0.07224523 0.11290929 0.030199172
000040 cd c6 93 bd 3c b7 96 bd fa 7c 08 3e 57 ef ca 3d
       -0.072156526 -0.07359168 0.13328925 0.09908932
000050 31 04 83 bd a0 82 12 3d cd ab 3b 3d 74 d5 a7 3e
       -0.06397284 0.035769105 0.04581814 0.3278004
000060 84 35 a9 3d 4d 33 24 3d f6 1a f9 bd 10 a3 83 bd
       0.082621604 0.040087987 -0.121633455 -0.06427586
000070 55 55 12 3d 7b 34 dd 3d a4 70 37 be 73 9d 6c 3d
       0.03572591 0.108010255 -0.17914063 0.057767343
000080 96 62 cf 3d 1d 40 77 ba 6f 58 07 be 37 58 8d 3e
       0.10126226 -0.0009431856 -0.13217328 0.27606365
000090 db 9b 08 be a0 3c 53 3e 23 b2 32 3e 79 4d 0b be
       -0.13340704 0.20628595 0.17450766 -0.13603772
0000a0 1f 6e 21 3d 8a 4c 50 be e0 e6 cc 3d d0 cc 5d 3d
       0.03941166 -0.20341697 0.100049734 0.054150403
0000b0 6d e8 68 be 38 81 2e be 1e dc ed bd 57 f4 4a 3e
       -0.22744913 -0.1704148 -0.1161425 0.19819771
0000c0 cf ec 83 3e 0a c3 6e 3e 8f 8b 7a bd 4f ea e6 bd
       0.25766608 0.23316589 -0.06116825 -0.112751596
0000d0 0b ef 57 bd bb 2d 83 be c9 dd 99 bd a9 3e 26 be
       -0.052718204 -0.25620827 -0.07513005 -0.1623484
0000e0 e4 dd 06 3c 3f 37 14 3e d5 91 1e 3e 36 cd 1f 3e
       0.008231614 0.144742 0.15485318 0.15605626
0000f0 72 86 4d 3e 34 8e 56 bc a1 06 d4 3e 45 98 41 bd
       0.20070818 -0.013095427 0.41411307 -0.047264356
000100 87 df e1 bd 79 ad 84 bd 33 2b ba 3d 65 ef eb 3d
       -0.110289626 -0.064784 0.09090271 0.1152027
000110 3a 78 73 be 81 93 80 3e ed 3f 51 3e d3 24 4e be
       -0.23776332 0.25112537 0.20434542 -0.20131235
000120 25 00 02 3e 42 35 b1 3d 6e df a7 3d 30 61 04 bc
       0.12695368 0.08652736 0.08196913 -0.008079812
000130 a2 96 96 3d f5 2f d7 3c 8c 39 a0 bd f5 e4 0a 3e
       0.0735295 0.026267985 -0.07823476 0.13563903
000140 a3 1b 12 be 3c 2f 4b 3e 91 bc 3c 3d 9b 7f 42 be
       -0.14268355 0.19842237 0.04607827 -0.1899399
000150 8b 64 dc 3d e6 9e 4f bd 2d a9 1a bc 50 14 42 be
       0.107613645 -0.050688647 -0.009439749 -0.18953061
000160 b5 54 ce bd 43 8f 91 bc d5 ab 6c 3c 6a 6f 7c bd
       -0.1007475 -0.017768508 0.014445265 -0.06162969
000170 36 bd 3d 3d 1d f5 54 3c 33 62 4d 3e 29 98 2b be
       0.046323024 0.012997893 0.20056991 -0.16757263
000180 86 e0 c7 bd e7 56 1e bc c4 8e 0f 3e f6 2d 2d bd
       -0.09759621 -0.009664274 0.14019305 -0.04228016
000190 0d e0 38 3e ab f0 ee bd c4 57 0c be fe 5c 14 3e
       0.18054219 -0.116669975 -0.13705355 0.14488599
0001a0 cd 5d bd bd 0e ff e4 3d c0 ca b3 bd 3a 33 d6 3b
       -0.09246407 0.1118146 -0.08778906 0.0065368684
0001b0 2d 50 a1 3d f3 24 c8 3c 7e ec f9 3d a5 5a e9 bd
       0.078766204 0.024431681 0.122033104 -0.11394242
0001c0 11 7a 33 be 84 e9 b2 bd a9 03 ba bb 35 86 3c 3d
       -0.17527033 -0.08735946 -0.005676706 0.046026427
0001d0 fe d8 2c 3d a6 ec 22 3e 0d 5b 6d 3d f3 be 29 3e
       0.042199127 0.15910587 0.05794816 0.16576748
0001e0 5f 9e fd bc 90 c0 25 be 29 05 65 3c 53 5d 80 be
       -0.030959306 -0.16186738 0.013978281 -0.250712
0001f0 60 02 0a be 49 01 c9 bd 75 78 3a be 6c b0 78 3e
       -0.13477468 -0.09814698 -0.18210013 0.2428605
000200 41 e9 34 3d d5 ba 33 3e 48 d7 99 3e b7 d8 9b be
       0.04416776 0.1755174 0.3004706 -0.30438778
000210 43 3c 70 3e ce b5 1d be a2 2c ee bd 63 7f 42 3e
       0.23460488 -0.15401384 -0.11629607 0.18993907
000220 c2 94 e8 bd 3b 09 4c 3d 63 26 35 bd b4 44 b7 3d
       -0.11356498 0.04981349 -0.04422606 0.08948651
000230 70 f1 a4 3d d3 7e f1 3d 7f 6f 57 3c a1 21 92 be
       0.08053863 0.11791768 0.013149141 -0.28541282
000240 92 95 1d be 82 50 cf bd 78 ce 91 bd 77 c4 77 3d
       -0.15389088 -0.101227775 -0.07119459 0.060490098
000250 8c 1d 9a bd d4 54 c3 3d 9f 66 01 3d 8e b2 81 3e
       -0.07525167 0.09537664 0.031592008 0.2533154
000260 22 d5 d4 3d 1a 5f c0 bd 72 e8 50 be 79 15 53 3e
       0.10392214 -0.09393139 -0.20401171 0.2061366
000270 53 6c 08 3e 9a 9d d6 3d f9 4b 9d be 9b d3 a3 bd
       0.13322572 0.10479279 -0.30722025 -0.07999345
000280 e7 02 03 be e6 7a 51 3e 16 67 04 3e 3b 6d 1c be
       -0.12794076 0.20457038 0.12929949 -0.15276043
000290 b4 6d 51 3e 19 58 71 be 51 03 ee bd 23 e2 cb 3d
       0.20452005 -0.23568763 -0.11621726 0.099552415
0002a0 73 f5 af 3c 8c 3a eb bb ee 5f 0b be bf c9 64 bd
       0.021479344 -0.00717861 -0.13610813 -0.055856463
0002b0 e0 f0 94 bc 05 f0 9c bd 58 c3 dd 3b b3 bb 90 be
       -0.018181264 -0.076629676 0.0067676716 -0.28268203
0002c0 82 2b 23 be 4e 1d aa be 8a 14 97 3c 09 c7 1c bd
       -0.15934566 -0.33225483 0.018442411 -0.038275752
0002d0 d0 c1 9d bd 2a dc 06 3e c1 20 2d be 0d a4 8b 3e
       -0.077029824 0.13169923 -0.16907026 0.27273598
0002e0 41 c1 89 3e a0 f7 0d bd ce 9e ec bd 6a 77 86 3d
       0.26905254 -0.03465998 -0.11553727 0.06565745
0002f0 02 e6 e5 bd 34 a9 0c 3e f1 4c 86 bd ba a7 81 3c
       -0.11225511 0.13736421 -0.06557644 0.015827049
000300 30 90 13 be 00 48 3a 3d 00 8f 4e 3c c9 a4 07 3e
       -0.14410472 0.04547882 0.012607336 0.13246454
000310 20 cd c3 bd f4 37 a6 3d 68 43 08 3e 5c 81 06 be
       -0.09560609 0.08116141 0.13306963 -0.13135284
000320 b6 b4 92 bd d9 a2 bb bd 30 3a 44 bc 67 42 81 3d
       -0.07163374 -0.0916192 -0.011976764 0.06311493
000330 55 80 77 3d cb 5a 7d bd d0 20 08 bc 51 44 2b 3e
       0.06042512 -0.061854165 -0.008308604 0.1672528
000340 30 23 b1 3d ff 70 88 3d 01 5e 13 be 2f c0 19 3e
       0.086492896 0.06662177 -0.14391328 0.15014718
000350 cb cc 4b bd 4b 36 5c bc 5a 43 62 bd 3e 90 01 be
       -0.049755853 -0.013440679 -0.055240013 -0.1265268
000360 cb 4f 59 be 9a 8a 39 3e 38 79 9e 3c 19 4d 11 be
       -0.21221845 0.18119279 0.019344911 -0.14189567
000370 03 42 6e be 38 60 4d bd 2d 23 60 3d 2c fa 0e 3c
       -0.23267369 -0.05014059 0.054721046 0.008726638
000380 a2 76 6c bc cc 85 39 3c 96 af 7f bc 5a 16 80 bc
       -0.014432581 0.011323404 -0.015605828 -0.015635658
000390 16 2f b1 bd 2a 7e 30 3e 35 28 ba bd 78 64 ea 3c
       -0.08651559 0.17235628 -0.090897 0.02861236
0003a0 9b 65 94 bd 28 13 80 3c 97 62 13 bd 4b 22 87 bd
       -0.07245942 0.015634134 -0.035982694 -0.06598338
0003b0 c9 04 d4 bb 03 b7 c8 3d f1 ed 2f 3e 33 19 85 bd
       -0.006470297 0.09800532 0.17180611 -0.06498947
0003c0 c4 69 e1 bc e4 3f 50 3c 86 42 b4 bd 6a b0 12 bd
       -0.027516253 0.012710545 -0.08801751 -0.035812773
0003d0 05 bd ab bd 4a bc 25 be d4 17 d8 3b 2a 3d 5b bd
       -0.08385662 -0.16185108 0.0065946374 -0.053525127
0003e0 04 90 28 3c 91 f0 aa bd 6c f1 10 be 40 1d f7 3d
       0.010288242 -0.08346666 -0.14154595 0.12066126
0003f0 3d 35 a3 bd 83 4c c9 3d 0d 71 6a 3c ad 45 32 be
       -0.07969139 0.098290466 0.01430918 -0.17409392

linear_layer_2.bias f4 [32]
000000 89 17 61 3e 06 1b 1c be 60 af c4 bc 88 47 de 3b
       0.21981634 -0.15244684 -0.024009407 0.0067834295
000010 ad 9f b8 3d fb 4f 04 3e 0b 56 be 3d 8c 1b 6e 3d
       0.09014831 0.12921135 0.09293755 0.05813174
000020 e1 23 50 3c b7 93 e3 bb 73 25 b1 bd 7e da 6f 3c
       0.012703867 -0.006945099 -0.08649721 0.014639495
000030 0f bd 03 be 1d 31 5a be 6e 6d 19 bd a8 21 ce 3d
       -0.12865089 -0.21307798 -0.037457876 0.10065013
000040 97 48 b8 3d b9 68 99 3d bd 45 8d 3d 00 35 17 3d
       0.089982204 0.074906774 0.06898067 0.03691578
000050 0c 09 8f 3c 58 3c d1 3d 8e b7 90 3e b3 36 03 3e
       0.017460369 0.10216588 0.2826504 0.12813835
000060 82 9b 0f 3e 76 f8 b4 3d aa 08 06 3d 7f be fc 3c
       0.14024165 0.08836453 0.032723106 0.030852554
000070 90 30 b0 3d f2 09 70 3e b9 1a 40 3d 2f 84 67 3e
       0.086030126 0.23441294 0.046900485 0.22609018

mean_action_layer.weight f4 [1, 32]
000000 15 f9 c2 bd 54 6f b4 3d 57 2d ce 3d 44 53 22 be
       -0.09520165 0.08810297 0.10067242 -0.15852076
000010 3c 90 20 be 93 94 2e be 60 83 7d 3e f7 7e 0b 3c
       -0.15680021 -0.17048864 0.24757147 0.0085141575
000020 33 77 57 be 2d 48 40 be 94 cd 20 be df c9 a7 be
       -0.21041565 -0.18777533 -0.15703422 -0.32771203
000030 bc 7e 55 bd 43 63 b9 be 38 2a 45 bd 8a 82 9d 3e
       -0.052122816 -0.36208543 -0.048135966 0.30763656
000040 84 8f e4 bd 40 1d bc bd d7 06 c4 bd 50 c2 3a 3e
       -0.11160186 -0.091852665 -0.09571617 0.18238187
000050 e7 19 13 3e 68 08 18 be d6 ff a6 3d b7 27 55 3e
       0.1436535 -0.14846957 0.081542656 0.20815931
000060 07 7e 38 bd 12 1b 3b be ef ad 77 3e ae dd 00 be
       -0.045042064 -0.18272045 0.24187444 -0.12584564
000070 b6 bb de bd 57 2d bb bd a3 22 3b be 82 eb be 3d
       -0.10875647 -0.09139507 -0.18274932 0.09322263
