envs/runs/22-03-17_09-31-46-056018_PPO/checkpoints/2000_policy.pt (torch, 7251 bytes, 5 tensors)

linear_layer_1.weight f4 [32, 4]
0	0x3e0f3337	0.1398438
1	0xbd2e750e	-0.0425921
2	0xbeac9ef8	-0.33715034
3	0xbdd44bc4	-0.10366014
4	0x3dc7c279	0.097538896
5	0xbe648cff	-0.2231941
6	0x3f01a3c6	0.50640523
7	0x3d66148b	0.056171935
8	0x3cd4c81f	0.025974331
9	0xbcfe683e	-0.031055566
10	0x3ed37f9c	0.41308296
11	0x3e2230de	0.15838954
12	0xbe057d6a	-0.13036123
13	0x3dcd2928	0.100176156
14	0xbf0ee045	-0.5581096
15	0xbde97850	-0.11399901
16	0xbe6c1156	-0.23053488
17	0xbe8f7bfe	-0.28024286
18	0x3f5f9446	0.8733562
19	0x3de3364f	0.11094343
20	0x3c5c3a2b	0.013441603
21	0x3de01b41	0.10942698
22	0xbf187caa	-0.5956522
23	0xbdf4b371	-0.11948288
24	0x3e884ca1	0.26620963
25	0x3d58a33e	0.052890055
26	0xbf0cecfe	-0.5504912
27	0x3d069fbd	0.032867182
28	0xbc8977e0	-0.016780794
29	0xbd968e60	-0.073513746
30	0x3eaeb35d	0.34121218
31	0x3e1229a6	0.142737
32	0x3cd6fa93	0.02624253
33	0xbc9d3b49	-0.019193308
34	0xbeda3e22	-0.4262553
35	0xbe3421c6	-0.17591009
36	0x3e0e346c	0.13887185
37	0xbdf67e06	-0.12035756
38	0x3e9969d7	0.29963562
39	0x3ea51e1c	0.32249534
40	0x3d8444a7	0.06458407
41	0x3de95962	0.113940015
42	0xbe4fefc7	-0.20306312
43	0xbe41de53	-0.18932466
44	0x3a392315	0.00070624176
45	0xbe40f08b	-0.1884176
46	0xbeb65587	-0.35612127
47	0xbe33521e	-0.17511794
48	0xbcbc10b7	-0.022957189
49	0x3d865519	0.065592
50	0x3e905f2f	0.2819762
51	0x3cb8480b	0.02249529
52	0x3cdbd3b6	0.02683435
53	0xbd4cf9e5	-0.050043005
54	0x3ef318c7	0.4747984
55	0x3e135236	0.1438683
56	0xbd8651e7	-0.065585904
57	0x3d07efba	0.033187605
58	0x3f071256	0.52762353
59	0x3e0e0807	0.1387025
60	0x3d70f76a	0.058829702
61	0xbc373b47	-0.011183566
62	0xbf0a3308	-0.5398412
63	0xbe2dee03	-0.16985326
64	0x3ce9ab38	0.028524026
65	0xbd1d5344	-0.038409486
66	0xbee82a0f	-0.45344588
67	0xbe5e01bb	-0.21680348
68	0x3ef30e68	0.4747193
69	0x3d88ae86	0.06673913
70	0xbf32f9ae	-0.6991223
71	0xbd0957a9	-0.033530865
72	0x3d3625ed	0.044469763
73	0xbd384192	-0.044984408
74	0x3e81bf94	0.25341475
75	0x3e28a313	0.16468458
76	0xbdca3354	-0.09873071
77	0x3d5fe004	0.054656997
78	0x3ece0624	0.4023906
79	0x3c848fd7	0.01618187
80	0xbba5ec3f	-0.005063563
81	0xbbbf249f	-0.005833223
82	0xbee0a40d	-0.4387516
83	0xbdbcf41c	-0.09226248
84	0xbe599508	-0.21248257
85	0xbe20d0a9	-0.15704598
86	0x3f11f15f	0.5700893
87	0x3cc7642e	0.024339762
88	0xbdc03077	-0.09384244
89	0x3d593d0b	0.05303673
90	0x3db1305a	0.086518005
91	0x3e58c0ac	0.21167248
92	0xbe15a20b	-0.14612596
93	0x3c8fd954	0.017559685
94	0x3f12f33c	0.57402396
95	0xb93a2f05	-0.00017755858
96	0xbdc22ad7	-0.09480827
97	0x3d4303d9	0.04761109
98	0x3f0f85b2	0.5606338
99	0xbccbf8c5	-0.024898896
100	0xbe12ab87	-0.14323245
101	0x3dae9b32	0.08525695
102	0xbe997198	-0.29969478
103	0xbc158524	-0.0091259815
104	0xbd795238	-0.060869426
105	0x3d505841	0.050865415
106	0xbf10edbb	-0.5661275
107	0xbe89b648	-0.26896882
108	0xbdd272f7	-0.10275834
109	0x3dd2e411	0.102974065
110	0xbde92675	-0.11384288
111	0xbda1b1a1	-0.07895208
112	0x3ca93e66	0.020659637
113	0x3c93ed3e	0.018057462
114	0xbd3e1915	-0.04641064
115	0xbe458dad	-0.19292326
116	0x3d3565d3	0.04428656
117	0xbd920c5c	-0.071312636
118	0x3e2a3a85	0.16623886
119	0xbddaa313	-0.10675635
120	0xbbd6dca5	-0.0065570646
121	0x3da9948a	0.08280285
122	0xbe750633	-0.23928146
123	0xbe2f9e90	-0.1715033
124	0xbc008cac	-0.007846039
125	0x3be82e04	0.0070855636
126	0x3e9a5ca7	0.30148813
127	0x3e7a06dc	0.24416679

linear_layer_1.bias f4 [32]
0	0xbde6cc83	-0.11269476
1	0x3d1b2fbc	0.03788732
2	0x3e099d5e	0.13438937
3	0x3db9488c	0.0904704
4	0x3e429f79	0.19006146
5	0x3db7ea21	0.089802034
6	0x3e666a38	0.22501457
7	0xbd941636	-0.07230799
8	0x3e466add	0.19376703
9	0x3e3f3635	0.18673022
10	0x3e648345	0.223157
11	0x3d510ccb	0.05103759
12	0xbe5711dd	-0.21002908
13	0x3df42386	0.11920838
14	0x3e47ea13	0.19522886
15	0xbd712362	-0.058871634
16	0xbcd9acc7	-0.026571644
17	0x3dcff4b0	0.10154092
18	0xbd6989a4	-0.05701603
19	0xbb87cf51	-0.004144587
20	0x3d3843fb	0.044986706
21	0xbdeabe4a	-0.11462076
22	0x3e473e53	0.19457369
23	0x3e1e9750	0.15487409
24	0x3d975768	0.07389718
25	0xbc380aa6	-0.011233008
26	0x3d601ba7	0.05471387
27	0x3c9e1492	0.019296918
28	0xbcfa5d80	-0.030562162
29	0x3cae6203	0.02128697
30	0xbcf3bd47	-0.02975334
31	0x3d9ff4bc	0.07810351

linear_layer_2.weight f4 [32, 32]
0	0xbe081916	-0.1329082
1	0x3e0af273	0.1356905
2	0x3b0919b2	0.0020919857
3	0xbe9ea50e	-0.30985302
4	0x3e2fc9bb	0.17166798
5	0xbeb1ea61	-0.3474913
6	0x3d0952d3	0.033526253
7	0x3e95b014	0.292359
8	0x3d3d4892	0.046211787
9	0x3dde811c	0.108644694
10	0xbe82c96c	-0.25544298
11	0xbe0c1c65	-0.13682707
12	0x3ddeb306	0.1087399
13	0x3da59573	0.08085146
14	0x3df2fccf	0.11864626
15	0x3c505330	0.012715146
16	0xbdb27c28	-0.08715087
17	0xbdb8b77b	-0.09019371
18	0x3e098401	0.13429262
19	0x3dd5f270	0.10446632
20	0xbd9c20f6	-0.07623474
21	0x3d178241	0.036989454
22	0x3d33b29a	0.0438715
23	0x3eadcea5	0.3394672
24	0x3dc0fb92	0.09422983
25	0x3d351a99	0.04421482
26	0xbe0dbbc3	-0.13841157
27	0xbd74bd07	-0.059750583
28	0x3cf82979	0.030293213
29	0x3dc57fa6	0.09643488
30	0xbe404862	-0.18777612
31	0x3d67fce1	0.05663765
32	0x3e12b32f	0.14326166
33	0x3cba52c0	0.022744536
34	0xbe328d4b	-0.17436711
35	0x3e99ccc3	0.30039033
36	0xbdfb6644	-0.12275365
37	0x3e74ada9	0.23894371
38	0x3e266fee	0.16253635
39	0xbe2cdf74	-0.16882116
40	0x3d8b4e2a	0.06802018
41	0xbe7ac532	-0.24489287
42	0x3de35f77	0.11102193
43	0x3dc409d7	0.09572189
44	0xbe723d97	-0.23656307
45	0xbe5e149d	-0.21687551
46	0xbe1c55dd	-0.15267129
47	0x3e83c9a0	0.25739765
48	0x3e9ea3b2	0.30984265
49	0x3e7c1301	0.24616624
50	0xbdc2aba0	-0.09505391
51	0xbe0f4011	-0.13989283
52	0xbc076eb2	-0.008266138
53	0xbe6c4a09	-0.23075117
54	0xbdcf4a22	-0.101215616
55	0xbe33fb39	-0.17576303
56	0xbc35a6b9	-0.011087113
57	0x3e06ca51	0.13163115
58	0x3e544606	0.20729837
59	0x3e1735e5	0.14766653
60	0x3e784ba3	0.24247603
61	0x3cc469b9	0.023976194
62	0x3ef0b13b	0.47010216
63	0xbda1a439	-0.07892651
64	0xbdba0e0e	-0.09084712
65	0xbd46155e	-0.04836022
66	0x3d97752b	0.07395395
67	0x3e05b28c	0.13056391
68	0xbe7471df	-0.23871563
69	0x3e8eb1c7	0.27870008
70	0x3e4ede12	0.202019
71	0xbe6459c5	-0.2229987
72	0x3e19a603	0.15004735
73	0x3d929932	0.07158126
74	0x3db80368	0.08985025
75	0x3ca1a332	0.019731138
76	0x3d8441dd	0.06457875
77	0x3bd8125a	0.0065939846
78	0xbdbe4400	-0.09290314
79	0x3e2d38df	0.16916226
80	0xbde40651	-0.11134017
81	0x3e5b3eba	0.21410647
82	0x3d0650f4	0.032792047
83	0xbe518154	-0.20459491
84	0x3e0c39db	0.13693945
85	0xbd272805	-0.04080965
86	0xbc7ad271	-0.015308962
87	0xbe503efd	-0.20336528
88	0xbdf471cb	-0.11935767
89	0xbcdd5af8	-0.027020916
90	0x3d4451f4	0.04792972
91	0xbd8c68d4	-0.06855932
92	0x3d83eed7	0.064420395
93	0x3d186106	0.037201904
94	0x3e6697f7	0.22518907
95	0xbe33ead1	-0.17570044
96	0xbdcb65d6	-0.09931533
97	0xbb82cd12	-0.0039917314
98	0x3e1159b3	0.14194374
99	0xbd495c97	-0.049160566
100	0x3e4872e0	0.19575071
101	0xbe023e8c	-0.12719172
102	0xbe0c9ea1	-0.13732387
103	0x3e0fa1ed	0.14026614
104	0xbdb864e4	-0.09003618
105	0x3de67c8b	0.112542234
106	0xbda0c4a0	-0.07850003
107	0x3bcd69f4	0.006268734
108	0x3d8d850a	0.06910141
109	0x3cea468c	0.028598092
110	0x3dfc8d38	0.12331623
111	0xbdf71d70	-0.12066162
112	0xbe37b673	-0.17940693
113	0xbdc150a9	-0.09439213
114	0xbc54623c	-0.012962874
115	0x3d2effe1	0.042724494
116	0x3d29876b	0.04138891
117	0x3e252352	0.16126755
118	0x3d55992c	0.05214803
119	0x3e3830e1	0.17987396
120	0xbcae2330	-0.021257013
121	0xbe2cc84c	-0.16873282
122	0x3c0c2ede	0.008556096
123	0xbe81eef2	-0.25377613
124	0xbe07f971	-0.13278748
125	0xbdc92452	-0.09821381
126	0xbe3d885e	-0.18509051
127	0x3e7208fb	0.23636238
128	0x3cf68cf5	0.03009651
129	0x3e2bb831	0.16769482
130	0x3e9f9b5d	0.3117322
131	0xbea0360a	-0.3129123
132	0x3e77af24	0.24187905
133	0xbe342a65	-0.17594297
134	0xbdf263ac	-0.11835417
135	0x3e4c6d51	0.19963576
136	0xbe00939e	-0.12556311
137	0x3d6f93dc	0.05849062
138	0xbd3cd770	-0.046103895
139	0x3d982c09	0.07430274
140	0x3da8dca7	0.08245211
141	0x3e094059	0.13403453
142	0x3cc3dd29	0.023909168
143	0xbe9dd83a	-0.3082903
144	0xbe3106b3	-0.17287712
145	0xbdf53376	-0.11972706
146	0xbd8ba2fa	-0.06818195
147	0x3d91be2c	0.071163505
148	0xbdbc6cbb	-0.09200426
149	0x3dc25f67	0.09490853
150	0x3d061796	0.032737337
151	0x3e894af4	0.26814997
152	0x3dfaaf48	0.122404635
153	0xbdb55cca	-0.08855589
154	0xbe656067	-0.22400056
155	0x3e5ade3a	0.21373835
156	0x3e00b9ba	0.12570849
157	0x3dba9adb	0.091115676
158	0xbea332ed	-0.3187479
159	0xbd9f2d7f	-0.077723496
160	0xbe13a9a6	-0.14420184
161	0x3e46e243	0.1942225
162	0x3e11ed0f	0.14250587
163	0xbe2413dd	-0.16023202
164	0x3e5870d1	0.21136786
165	0xbe84c1cf	-0.25929114
166	0xbdf20ecd	-0.11819229
167	0x3de21bb6	0.11040442
168	0x3bf71d83	0.00754136
169	0x3b231563	0.0024884574
170	0xbe0e038f	-0.13868545
171	0xbd96f3de	-0.07370733
172	0xbc713c5c	-0.014723863
173	0xbd711d84	-0.05886604
174	0x3c9e3e41	0.019316794
175	0xbe9dce4b	-0.30821452
176	0xbe391903	-0.18075947
177	0xbeb534fa	-0.3539198
178	0x3cb50ebb	0.02210175
179	0xbcc648cb	-0.024204632
180	0xbdc5a917	-0.09651392
181	0x3e05981d	0.13046308
182	0xbe2ad235	-0.1668175
183	0x3e93bb6b	0.28853926
184	0x3e9521ab	0.2912725
185	0xbce298ae	-0.027660694
186	0xbe0c2a58	-0.13688028
187	0x3d9c21e0	0.07623649
188	0xbdf832d7	-0.12119072
189	0x3df918d4	0.12162939
190	0xbd9f7451	-0.077858575
191	0x3c9d7c6c	0.019224368
192	0xbe08c03a	-0.13354579
193	0x3d690419	0.056888673
194	0x3ba671be	0.005079477
195	0x3e10cf56	0.14141592
196	0xbdc302c8	-0.09522015
197	0x3dc6d247	0.09708076
198	0x3e091353	0.13386278
199	0xbe135a7f	-0.1438999
200	0xbd696574	-0.05698152
201	0xbdc95682	-0.09830953
202	0xbb928008	-0.004470829
203	0x3da1e83b	0.079056226
204	0x3d5cf7e7	0.053947356
205	0xbd8ee039	-0.06976361
206	0xbc7a260b	-0.015267859
207	0x3e3e4faa	0.18585077
208	0x3dd49a8e	0.103810415
209	0x3d9d8c6c	0.07692799
210	0xbe1a9af3	-0.15098171
211	0x3e140363	0.14454417
212	0xbd148fba	-0.03626988
213	0xbc094ad7	-0.00837966
214	0xbd6c520a	-0.057695426
215	0xbe0da7e0	-0.1383357
216	0xbe6354c4	-0.22200304
217	0x3e32a04a	0.17443958
218	0x3d173b82	0.036921985
219	0xbe15b7dc	-0.14620918
220	0xbe63da9f	-0.22251366
221	0xbd0f5f4e	-0.035003
222	0x3d9140ca	0.07092436
223	0x3ba9d6b2	0.0051830644
224	0xbc09375b	-0.008375014
225	0x3c59f521	0.013303072
226	0xbcbf22f1	-0.023332091
227	0xbc9060f3	-0.017624354
228	0xbdbb94ab	-0.091592155
229	0x3e2ac167	0.1667534
230	0xbdcb6e9e	-0.09933208
231	0x3cefec58	0.029287502
232	0xbd98afa9	-0.074553795
233	0x3c0afb15	0.008482714
234	0xbd77ebf3	-0.060527753
235	0xbd808c12	-0.06276716
236	0xba171c1e	-0.00057643827
237	0x3db8c14f	0.09021246
238	0x3e285d70	0.16441894
239	0xbd6ef4d9	-0.058338974
240	0xbcbdd0f5	-0.023170928
241	0x3bc043ed	0.0058674724
242	0xbdb8007c	-0.089844674
243	0xbd19ba42	-0.037531145
244	0xbda787c3	-0.08180191
245	0xbe1f03d8	-0.1552881
246	0x3a0e077c	0.00054179854
247	0xbdb14ee3	-0.086576246
248	0xbb82f73f	-0.003996759
249	0xbda4db2a	-0.08049615
250	0xbe0ed5d1	-0.13948752
251	0x3df04137	0.11731189
252	0xbd9cfde3	-0.076656125
253	0x3dce316b	0.100680195
254	0x3cce388b	0.025173446
255	0xbe368f9d	-0.17828222

linear_layer_2.bias f4 [32]
0	0x3e628571	0.22121216
1	0xbe222825	-0.15835626
2	0xbccc4fc7	-0.024940385
3	0x3c7f6566	0.01558814
4	0x3dbdd1d4	0.09268537
5	0x3e063236	0.13105091
6	0x3dbb08be	0.09132527
7	0x3cfe187c	0.031017534
8	0x3c9ad317	0.018899484
9	0xbaf822cb	-0.0018931268
10	0xbda93b67	-0.08263283
11	0x3ca8c769	0.020602899
12	0xbded5ab5	-0.115895666
13	0xbe5743ed	-0.21022005
14	0xbcd28802	-0.02569962
15	0x3dca7f97	0.09887617
16	0x3db5a37e	0.08869074
17	0x3da1a3bb	0.07892557
18	0x3d9a5c68	0.07537156
19	0x3d004b1c	0.03132163
20	0x3c02a098	0.007972859
21	0x3ddd63c4	0.108100444
22	0x3e8d9507	0.2765276
23	0x3e022709	0.12710203
24	0x3e0986c3	0.13430314
25	0x3dbcf830	0.092270255
26	0x3ce5ba63	0.028042978
27	0x3cfb6006	0.030685436
28	0x3dbb66b8	0.091504514
29	0x3e6e9dca	0.23302379
30	0x3d4ffb2a	0.050776638
31	0x3e610392	0.21974018

mean_action_layer.weight f4 [1, 32]
0	0xbdca9662	-0.098919645
1	0x3defb9ee	0.11705385
2	0x3dda0395	0.106452145
3	0xbe236e6d	-0.15960093
4	0xbe2c5302	-0.1682854
5	0xbe3c747a	-0.18403807
6	0x3e7fc84c	0.24978751
7	0xbac23787	-0.0014817574
8	0xbe623113	-0.22089033
9	0xbe4297d6	-0.19003233
10	0xbe274651	-0.16335417
11	0xbeab6318	-0.3347404
12	0xbd61f04f	-0.055160817
13	0xbebc20bd	-0.36743727
14	0xbd2cb462	-0.042164214
15	0x3ea8c072	0.32959324
16	0xbdf0f099	-0.1176464
17	0xbdc1d20d	-0.09463892
18	0xbdc1f106	-0.094698
19	0x3e5dba08	0.21652997
20	0x3e26b018	0.16278112
21	0xbe1c3b81	-0.15257074
22	0x3dc9a616	0.098461315
23	0x3e55904e	0.20855829
24	0xbd3c4e4e	-0.045973115
25	0xbe3d871c	-0.18508571
26	0x3e836dd1	0.2566972
27	0xbe073784	-0.13204771
28	0xbde11169	-0.10989649
29	0xbdc8ce00	-0.098049164
30	0xbe44ed85	-0.19231232
31	0x3de57b24	0.11205128
