envs/runs/22-03-17_09-31-46-056018_PPO/checkpoints/3000_policy.pt (torch, 7251 bytes, 5 tensors)

linear_layer_1.weight f4 [32, 4]
00000000: 2879 213e f207 f4bc f575 c9be b47f b4bd
00000010: 74bd 9e3d b492 6fbe d6d6 0a3f 68b7 2d3d
00000020: 1411 223c f4db 38bd 06b8 e73e 2b81 103e
00000030: 6c83 e3bd 42fd d93d 8765 18bf 6e83 d7bd
00000040: 8ca1 81be 23d8 96be 579e 6c3f f35e c03d
00000050: 7a3f 083d efe8 ec3d 8dbe 24bf 8174 e2bd
00000060: 677e 943e c499 6e3d 2282 1dbf 8f6d 293d
00000070: 2a5c 0dbd 4a59 b1bd 5cff c13e b12a 023e
00000080: 08a9 3a3d 1a24 a3ba 4dd2 ecbe 3fd2 1ebe
00000090: 520f 013e c4f9 0ebe 793f a93e d33b 993e
000000a0: 0eae aa3d 0fa5 fc3d 9ba4 7cbe a52e 35be
000000b0: a096 873c db76 2dbe 3035 bebe 3fb0 1ebe
000000c0: a803 23bd 291c 533d 74fd 9f3e 8bcb a93b
000000d0: e733 2b3c fd00 7ebd 903b 053f 3322 043e
000000e0: 7e2a a7bd f1a9 7e3c 4c1b 143f 5772 f13d
000000f0: 5a67 9f3d 8356 713a b139 16bf e409 1fbe
00000100: 7fe1 3e3d f6c6 bfbc d714 fcbe 9600 4cbe
00000110: 70e9 fe3e 5db7 913d cb13 44bf f420 d1bc
00000120: 87db 043d fe33 80bd 9959 8b3e 45c5 133e
00000130: 8a83 f0bd 9081 273d 5c7a ec3e 14d4 67b9
00000140: c68a 683c da35 d83b 8c03 f5be b72a 9fbd
00000150: d04a 73be 8911 2abe d75f 1d3f 59da 5e3c
00000160: f92f d7bd 578e e53c 36f1 d73d 1d90 3b3e
00000170: 28e4 2abe 4c80 383c 6bfa 213f 8158 13bc
00000180: f2a3 edbd 651c 2c3d 3370 1f3f a815 06bd
00000190: 975c 09be 0e5d b33d 70be 9fbe 4009 a6bb
000001a0: 8c05 2cbd 0cd3 873d b7b4 1bbf f477 80be
000001b0: bf5d d4bd 7457 d13d 4611 d2bd c588 a2bd
000001c0: 4b4d f23c d818 233d 1440 86bd b165 29be
000001d0: 5ddf 033d b691 84bd 5d61 333e c37b d1bd
000001e0: 70bb 263c 22f9 ba3d 6223 8fbe 2373 23be
000001f0: dd30 97bc 40fd babc fb4c aa3e ce40 573e
0.15768874 -0.029788945 -0.39347807 -0.0881342 0.07750979 -0.23395807 0.54234064 0.042411238
0.009891767 -0.04513164 0.45257586 0.14111774 -0.11109051 0.10644008 -0.5952992 -0.10523115
-0.25318563 -0.29461774 0.9242911 0.0939311 0.03326366 0.11567866 -0.6435326 -0.110573776
0.29002687 0.05825211 -0.6152669 0.04136425 -0.034511723 -0.08659609 0.37890136 0.12711598
0.045571357 -0.0012446672 -0.46254197 -0.1550989 0.126035 -0.13962466 0.33056238 0.29928455
0.083339795 0.1233617 -0.24672167 -0.17693575 0.016551316 -0.16939871 -0.37149954 -0.1549692
-0.03979841 0.051540527 0.31248057 0.005181735 0.010449386 -0.06201266 0.5204401 0.12903671
-0.081624016 0.015543447 0.5785415 0.11789387 0.077833846 0.00092063117 -0.5868178 -0.15531117
0.04660177 -0.023410302 -0.4923465 -0.19922099 0.49787474 0.07115052 -0.765927 -0.025528409
0.03243592 -0.06259917 0.27216795 0.14430721 -0.11743839 0.040895045 0.46187103 -0.00022108882
0.014193242 0.0065982165 -0.4785427 -0.07771819 -0.23759007 -0.16608252 0.61474365 0.013601863
-0.10507197 0.028021974 0.10544054 0.18316694 -0.16688597 0.011261057 0.6327273 -0.008993269
-0.11603536 0.042019267 0.6228058 -0.032735497 -0.13414226 0.08757983 -0.3119998 -0.0050670207
-0.041997477 0.06632051 -0.60822624 -0.25091517 -0.10369443 0.102217585 -0.10257201 -0.07936243
0.029577872 0.039818615 -0.06555191 -0.16542698 0.032195438 -0.06473105 0.1751761 -0.10228684
0.0101765245 0.091295496 -0.27956682 -0.1596189 -0.018455917 -0.022825837 0.33261856 0.21020815

linear_layer_1.bias f4 [32]
00000000: e317 08be a601 6c3d 2b19 1c3e 49d6 953d
00000010: a934 533e a3ec 933d 6c75 4e3e d585 62bd
00000020: a799 313e 6cd8 523e 43dc 503e 5d8d 9b3c
00000030: 5e7d 40be 3aa1 0b3e 704d 5b3e 9684 aebd
00000040: e9a4 66bd aef7 a93d 7fd9 31bd bc15 833c
00000050: dfd5 d73c ca48 acbd 11dc 573e 786f 2d3e
00000060: 039e b43d 8f43 c1bc 1c7c f83c 6fc7 e03b
00000070: 2497 6dbd b439 a13c a630 4fbd c148 cf3d
-0.13290362 0.05761876 0.15243976 0.07316262 0.20625557 0.07222869 0.2016198 -0.055303413
0.1734377 0.20590371 0.20396523 0.018988306 -0.18797824 0.13635722 0.21416259 -0.085213825
-0.056309614 0.08299194 -0.04342031 0.016001575 0.026347099 -0.08412321 0.21080042 0.16937053
0.08819201 -0.023591785 0.030332617 0.006859712 -0.058005467 0.019680835 -0.050583504 0.101212986

linear_layer_2.weight f4 [32, 32]
00000000: 4617 0abe a1ae 163e a4a4 89ba ab4f 94be
00000010: dce4 4e3e 939f adbe 08b6 f23c c755 8b3e
00000020: df15 873d 07e4 cc3d b8ec 71be dd5a f2bd
00000030: 7b52 ba3d c59d a33d c556 f43d dc22 a03c
00000040: 4762 97bd 7b0a d6bd f3e5 e73d 97c8 d13d
00000050: e2c4 74bd 80b5 433d 1e88 183d 20bf ba3e
00000060: fc69 f23d 2f2d 263d 2c6e f0bd 19b2 71bd
00000070: 6b72 363d 2007 e03d 3ae7 30be c529 363d
00000080: 6324 2f3e ab20 a23c 31f0 43be e949 8b3e
00000090: f94e 1bbe 41c7 643e 6ca9 1b3e f960 1abe
000000a0: b81e 543d e142 80be 416a b33d b140 b83d
000000b0: 4413 5bbe 15d1 74be 056d 34be fe9e 893e
000000c0: 5554 9f3e 43ee 833e b7d4 96bd b0d6 1abe
000000d0: 2f57 92bc 8800 68be ef37 ddbd a643 6ebe
000000e0: 0be8 98bd 40a3 073e 0797 483e 4ead 063e
000000f0: 6557 753e 720a a23c 73e5 f03e cace 95bd
00000100: 56d4 a4bd 2000 4ebd 3885 8f3d b787 df3d
00000110: af2e 86be 6af5 8a3e a4fe 4d3e fb0c 57be
00000120: f56d 0d3e 7e11 973d c26c 9a3d 71dc 1c3c
00000130: 82ea 9e3d 7390 443a b0b4 cebd 43ad 2e3e
00000140: 9749 eebd 9127 693e 83f4 403d 8c2f 57be
00000150: 788e 023e 9d02 35bd a55d 80bc b029 70be
00000160: 142b 1cbe 9357 01bd 3ea7 0d3d 889e 9cbd
00000170: 7873 6a3d 2e6f 063d 0194 5e3e 9345 2ebe
00000180: 5103 cebd 584e 393c 732c 0e3e cbba e2bc
00000190: 2d08 6e3e d562 efbd 431d 10be 9c89 ee3d
000001a0: 7b22 85bd 0258 d53d 81a6 5ebd 2001 ee3c
000001b0: fbaf 3f3d af89 e43c 21cb fd3d bc91 e5bd
000001c0: a47a 27be 9f4d debd 210b 13bd 45fe 203d
000001d0: 3ef4 773d 4bb1 313e e0ed 393d 9efb 543e
000001e0: 23d6 723b bb46 32be 99bf 043d f001 82be
000001f0: 50f8 efbd 40e6 a7bd ceb6 2cbe c833 653e
00000200: 966e cd3c b2f2 333e 2806 9f3e 2bff 93be
00000210: 6889 8a3e 5570 29be 1227 f7bd 6894 383e
00000220: def1 dbbd 66fa 523d a65d e0bc 2380 b93d
00000230: 0476 853d fa20 0a3e c867 dd3c 2b87 9bbe
00000240: 10b7 25be e7e7 09be 5c0c b5bd ce52 923d
00000250: 59d1 9bbd ffae d33d a87e e93c bb7e 973e
00000260: c37c 193e daa8 b5bd eb00 51be 7c58 5f3e
00000270: 1e6a 0d3e 4aa0 cf3d e158 9cbe f88f b4bd
00000280: f90a 1abe b3d9 4d3e 5193 113e b5cc 0bbe
00000290: f985 753e bb15 80be 40bd f6bd 5030 bd3d
000002a0: 5bc0 c83c 1fb8 83bb 24d6 f7bd e4eb 6ebd
000002b0: e250 ffbc 151b 6abd 1455 bf3c 9eff 9bbe
000002c0: 56c3 2ebe 9cca bdbe 702a 243b cd04 b8bc
000002d0: 32b5 a6bd 8ccf 0d3e 6280 2ebe b5a7 a23e
000002e0: 3b5a a43e bdd0 d8bc fdb0 f1bd f10b a83d
000002f0: c0fb dfbd 1113 063e e2b3 85bd 32c5 163c
00000300: 1573 00be 48af 5b3d f7f2 273b c4a6 003e
00000310: 9928 efbd 1a84 bd3d caab 093e eb81 08be
00000320: e5ae 8abd 7253 c4bd ff9d 91bc 9e43 8f3d
00000330: d91b 873d 48ab 97bd ff8f acbc 0b77 3f3e
00000340: e332 cc3d 90fb b83d 271e 0fbe fbde 103e
00000350: a85d 2fbd 9c53 4ebc eaa5 69bd a526 2abe
00000360: 6327 7ebe 0927 2f3e 02c0 df3c f3d3 1bbe
00000370: 6f72 69be a57a 21bd 3385 823d 7900 273c
00000380: 84be 723a a1f7 b63c 285b 02bd fafa afbc
00000390: 8b11 bdbd 3d74 283e 5375 d8bd 2003 d93c
000003a0: ae31 92bd 56fe ae3a c41b 8abd 8b5f 68bd
000003b0: c890 a13a 1f8b a73d fb27 1f3e 196a 43bd
000003c0: 797c 80bc ad7a ab3b 4cf0 bebd caf9 28bd
000003d0: d0a8 9cbd a9f2 18be d19e e3bb 03a7 e9bd
000003e0: db31 a7bc e839 cabd 7bc3 09be 0525 e53d
000003f0: eaf0 91bd a14a db3d 6109 203d fb31 3cbe
-0.1348544 0.14715053 -0.0010501337 -0.28967032 0.2020449 -0.33910808 0.029627815 0.2721388
0.065959685 0.1000443 -0.23625457 -0.11833737 0.09097763 0.079890765 0.119306125 0.019547872
-0.07391792 -0.10451218 0.11323156 0.102433376 -0.059758075 0.047780514 0.037239186 0.36473942
0.11836621 0.040570434 -0.117397636 -0.059007738 0.04454271 0.10938859 -0.17275706 0.04447343
0.17103724 0.019790968 -0.19134595 0.27204826 -0.15166844 0.22341634 0.15201348 -0.15076055
0.05178711 -0.25051025 0.08760501 0.08996714 -0.21394068 -0.23907883 -0.17619713 0.26879114
0.31119028 0.25767717 -0.07364791 -0.1512096 -0.017863838 -0.22656453 -0.10801684 -0.23267993
-0.07466134 0.13245869 0.19588862 0.13152048 0.2395912 0.019780371 0.47050056 -0.073148325
-0.08048312 -0.050293088 0.07007831 0.109145574 -0.26207492 0.2714036 0.20116669 -0.21001045
0.13811477 0.07376383 0.07540275 0.009574042 0.077595726 0.0007498331 -0.10093057 0.17058282
-0.1163513 0.22769 0.047108185 -0.21014231 0.1274966 -0.044191945 -0.015669653 -0.23453403
-0.15250808 -0.031577658 0.034583323 -0.07647425 0.057239026 0.032820873 0.21736147 -0.17018728
-0.10059226 0.0113101825 0.13884144 -0.02767696 0.23245306 -0.116887726 -0.14073662 0.11647341
-0.06500717 0.10417177 -0.05435801 0.02905327 0.046798687 0.027897684 0.123922594 -0.11209437
-0.16355377 -0.10854649 -0.035899285 0.03930499 0.060535662 0.17352788 0.04539287 0.2079911
0.0037053905 -0.17409794 0.032409284 -0.25392103 -0.11717284 -0.081982136 -0.1686661 0.22383034
0.025077146 0.1757305 0.31059384 -0.28905615 0.27057958 -0.16546758 -0.12067999 0.18025362
-0.10739492 0.05150833 -0.027388405 0.09057643 0.0651665 0.13489142 0.027027026 -0.30376562
-0.16183114 -0.1346737 -0.08840248 0.071447 -0.07608289 0.10336112 0.028502777 0.29588875
0.14988999 -0.088700965 -0.20410506 0.21811098 0.13810012 0.101379946 -0.3053656 -0.08816522
-0.15043248 0.20102577 0.14216353 -0.13652308 0.23976888 -0.2501658 -0.12047815 0.092377305
0.024505785 -0.0040197517 -0.12101391 -0.05833043 -0.031166498 -0.057154734 0.023355998 -0.30468458
-0.17066702 -0.3706864 0.0025049709 -0.022463227 -0.08140029 0.13848704 -0.17041162 0.31768575
0.3210009 -0.026466722 -0.11801336 0.08205403 -0.109366894 0.13093211 -0.065284505 0.009202288
-0.125439 0.053633958 0.0025626996 0.12563616 -0.11677665 0.09253712 0.13444439 -0.1333081
-0.0677164 -0.095862284 -0.017775534 0.06995319 0.065971084 -0.07405716 -0.021064756 0.18697755
0.09970643 0.09032357 -0.13976346 0.1414756 -0.042813927 -0.012593176 -0.057042994 -0.16616304
-0.24819712 0.17104734 0.027313236 -0.15217571 -0.22797559 -0.039423604 0.06373062 0.010192984
0.00092599564 0.022334876 -0.031825215 -0.02148198 -0.09231862 0.16450591 -0.10569253 0.026490748
-0.07138382 0.0013350945 -0.06743577 -0.056731742 0.0012326473 0.08180832 0.15542595 -0.047708604
-0.015684353 0.00523313 -0.09323177 -0.041253842 -0.07649386 -0.14936318 -0.0069464226 -0.11408808
-0.020409515 -0.09874326 -0.13453476 0.111887015 -0.07126029 0.10707594 0.039071444 -0.18378441

linear_layer_2.bias f4 [32]
00000000: 3138 703e c5e5 42be 890c 23bd 9d37 033d
00000010: c9c8 db3d b14e 153e 76f1 9e3d 79b8 7d3c
00000020: 2627 103d 0081 4f3c 2051 89bd 204c 163d
00000030: e92c cdbd 4e79 4bbe 3ab7 4bbc b619 ab3d
00000040: 82e0 ce3d 139b bc3d a961 b53d c48d 933b
00000050: b1f1 a7bc 1789 fb3d 4b95 843e 18f4 e63d
00000060: ee9e 123e 5d71 d83d b139 083c 4919 423d
00000070: 7038 d93d b357 7b3e f377 853d 32f6 4b3e
0.23458935 -0.19032963 -0.039806876 0.03203546 0.10731656 0.145808 0.07760899 0.015485876
0.035193585 0.012665033 -0.067049265 0.036693692 -0.100183316 -0.19870493 -0.012433821 0.08354513
0.10101415 0.092092656 0.08856518 0.0045029838 -0.02050099 0.12282007 0.25895151 0.11277026
0.1431844 0.10568497 0.008314536 0.047387395 0.10606468 0.24545173 0.06517019 0.19918135

mean_action_layer.weight f4 [1, 32]
00000000: dc58 cdbd 56f3 f13d 709b e03d 00ef 1ebe
00000010: 8637 33be 90d6 53be c27c 713e 4a11 043b
00000020: 5474 68be 8ba8 3fbe 3588 1fbe ff06 acbe
00000030: 50f5 80bd cb04 b3be 643c c0bc af38 a43e
00000040: a023 e8bd 4449 c1bd adfe bfbd dd29 533e
00000050: e0fc 1b3e 50f2 16be a73a ad3d 6ff7 533e
00000060: 4631 29bd 5a8a 31be 426b 7d3e f27c 14be
00000070: 5356 dcbd b625 ddbd a83a 49be 5f6c cd3d
-0.10026714 0.11813991 0.10967147 -0.15520859 -0.1750165 -0.20687318 0.23582748 0.0020151907
-0.22700626 -0.18716638 -0.15579303 -0.33599088 -0.0629679 -0.34964594 -0.023466296 0.32074496
-0.1133492 -0.094378024 -0.093747474 0.20621438 0.15233183 -0.14740872 0.08458453 0.20699857
-0.041306756 -0.17337933 0.24747947 -0.14500788 -0.107586525 -0.107982084 -0.19651282 0.10030436
