envs/runs/22-03-17_09-31-46-056018_PPO/checkpoints/4000_policy.pt (torch, 7251 bytes, 5 tensors)

linear_layer_1.weight f4 [32, 4]
000000 73 e8 17 3e 8c 38 23 bd 67 80 c1 be f1 71 d5 bd
       0.14834766 -0.03984885 -0.37793276 -0.10422123
000010 bd d4 aa 3d 3d 22 68 be 21 82 08 3f bc f7 5f 3d
       0.08341358 -0.22669311 0.5332356 0.054679617
000020 99 b6 7c 3c 87 c7 44 bd f3 d6 e2 3e 68 fe 10 3e
       0.015424394 -0.048041847 0.44304618 0.14159548
000030 6e d2 f2 bd 12 ca cf 3d 56 5d 17 bf 59 a4 e8 bd
       -0.118565425 0.10145964 -0.59126794 -0.11359472
000040 34 79 7c be df cf 93 be f1 34 6a 3f a1 6e d6 3d
       -0.2465561 -0.2886953 0.9148703 0.104703195
000050 d2 dc d6 3c b5 2c e5 3d f4 d5 22 bf 5d d3 f0 bd
       0.026228342 0.11190168 -0.63607717 -0.11759064
000060 28 23 90 3e 56 0b 60 3d 13 51 1b bf fd aa 0b 3d
       0.28151822 0.05469831 -0.60670584 0.034098614
000070 ce 66 dc bc 1d 53 b6 bd c9 73 c0 3e 2c 79 02 3e
       -0.02690449 -0.08902571 0.37588337 0.12741536
000080 07 4c f3 3c 23 1c 3e bc 5e 16 f0 be 40 1c 2f be
       0.029699339 -0.011603388 -0.46892065 -0.1710062
000090 3e 4b 0c 3e 3a 11 12 be 7f 99 a7 3e 0e 21 9a 3e
       0.13700578 -0.14264384 0.32734296 0.30103344
0000a0 f6 ef 95 3d de 44 f6 3d b2 0b 7b be 7c e3 3b be
       0.073211595 0.12024854 -0.2451618 -0.18348497
0000b0 6a 28 08 bd c2 08 53 be ad 70 d1 be d9 c4 52 be
       -0.033241667 -0.2060881 -0.40906277 -0.20582904
0000c0 65 86 e4 bc 50 87 2b 3d 05 c5 a4 3e 3e 69 33 bb
       -0.027896116 0.04187709 0.32181564 -0.0027375962
0000d0 65 de 85 3c 5f 13 76 bd 45 de 01 3f ac 04 0a 3e
       0.016341398 -0.060077067 0.5072978 0.13478345
0000e0 a9 df 9b bd 87 be 53 3c 7d 53 10 3f 4c 82 f3 3d
       -0.07611019 0.012923843 0.56377393 0.118900865
0000f0 db 65 80 3d 37 6a 74 bc b0 50 14 bf 8c 10 36 be
       0.062694274 -0.014917902 -0.5793562 -0.1777975
000100 3e ba cc 3c 30 c9 32 bd 10 73 fc be 5a d1 68 be
       0.024991151 -0.0436489 -0.49306536 -0.22736111
000110 75 3e fb 3e 24 6e 8a 3d 16 cd 40 bf 2c 42 06 bd
       0.49071088 0.06759289 -0.75312936 -0.03277795
000120 8e 71 1e 3d a2 b3 8f bd 5d 64 8b 3e cf e2 0e 3e
       0.038682513 -0.07016684 0.2722501 0.13953708
000130 30 6c e0 bd da 6e 36 3d 9f 07 e3 3e 52 ba e7 3b
       -0.10958135 0.04453931 0.44341752 0.0070717717
000140 ab f1 c6 3a 3b c7 2f bb ff de f3 be 36 db bb bd
       0.0015178224 -0.0026821631 -0.4763107 -0.091726705
000150 eb 51 69 be 07 3b 1d be 82 3d 1b 3f a3 5d 03 3d
       -0.22785155 -0.15354548 0.6064073 0.03207172
000160 94 99 c9 bd e5 c7 98 3c b9 a7 cf 3d 1d 29 35 3e
       -0.09843746 0.018650005 0.101394124 0.17691465
000170 96 22 29 be 98 2c 5a 3c e4 1b 1e 3f 59 46 7f bb
       -0.165171 0.013316296 0.6176131 -0.0038951843
000180 c8 8a f1 bd d8 54 33 3d 06 8c 19 3f 8e 48 e6 bc
       -0.117940485 0.043782085 0.59979284 -0.028110769
000190 5d bc 09 be 7e 58 97 3d 20 27 9e be f1 85 b7 bc
       -0.13450761 0.073899254 -0.30889225 -0.022402735
0001a0 9f bd 80 bd 30 c8 43 3d 8b 84 1c bf 57 a7 8d be
       -0.06286167 0.047798336 -0.61139745 -0.27666733
0001b0 2f 46 e9 bd 50 61 ba 3d 7b ee f1 bd 19 f1 c1 bd
       -0.113903396 0.09100592 -0.11813065 -0.09469814
0001c0 34 48 ad 3b aa 5b c5 3c 11 22 98 bd 43 77 45 be
       0.0052881483 0.02409156 -0.07428373 -0.19283776
0001d0 f3 d2 de bc 56 d1 a2 bd 78 b3 15 3e 19 3e fa bd
       -0.027200198 -0.07950084 0.14619243 -0.122188754
0001e0 32 6e 8d ba 01 e8 a3 3d 1f 36 8d be db 56 34 be
       -0.0010790287 0.080032356 -0.27580354 -0.17611258
0001f0 6a 4c 64 ba 80 1c 9f bc 4d f5 a5 3e 67 2c 61 3e
       -0.00087088963 -0.01942277 0.32413712 0.21989594

linear_layer_1.bias f4 [32]
000000 59 db cd bd 75 e3 e2 3c 85 10 fa 3d bf ab d1 3d
       -0.10051603 0.02769635 0.12210182 0.10237836
000010 8b 16 32 3e 62 48 d3 3d 7d 83 6b 3e eb bd aa bd
       0.17391412 0.1031654 0.22999378 -0.08337005
000020 f1 1a 4a 3e 57 df 36 3e 1a d9 6e 3e 2f c9 30 3d
       0.1973684 0.17858635 0.23325005 0.043160614
000030 7c 6b 55 be 76 b8 d6 3d b2 9c 3c 3e 2b 2f 5d bd
       -0.20841783 0.10484402 0.1841915 -0.05400006
000040 f7 e0 d4 bc 95 c7 ea 3d 5f 7a 84 bd 07 09 26 bc
       -0.025986178 0.114638485 -0.06468653 -0.010133988
000050 86 4c 5f 3d 64 b3 eb bd 84 d7 3b 3e 7f 3f 0a 3e
       0.054516338 -0.115088254 0.18343931 0.13500784
000060 b4 8a 63 3d 33 f7 3a b9 f6 40 70 3d 97 ec ce 3c
       0.0555522 -0.00017830431 0.0586557 0.0252593
000070 33 c6 d1 bc d4 4f e4 3b 7f 12 a3 bc aa eb a3 3d
       -0.025607204 0.006967524 -0.01990628 0.08003934

linear_layer_2.weight f4 [32, 32]
000000 27 df f3 bd 42 1c 10 3e a0 99 b7 bc 93 eb 9d be
       -0.11907797 0.1407328 -0.022412121 -0.3084379
000010 09 ae 3c 3e 1c 6f b7 be 08 7e 45 3c 47 d5 8e 3e
       0.18425764 -0.35826957 0.012053974 0.27897093
000020 0c 7e 4f 3d 07 9e a7 3d f6 a1 86 be b8 ff 00 be
       0.050657317 0.08184438 -0.2629544 -0.12597549
000030 75 12 e7 3d 84 b6 65 3d d3 96 c5 3d d2 da cb 3c
       0.11282817 0.056082264 0.09647908 0.024884615
000040 2c 7f 9b bd 57 aa e9 bd f4 9b e9 3d 7a a3 af 3d
       -0.075926155 -0.11409443 0.11406699 0.085761026
000050 c6 e4 7a bd 9a 2e 5a 3d 24 54 98 3c 4f b7 a2 3e
       -0.06125333 0.0532671 0.018594809 0.31780478
000060 a9 4f 8a 3d e3 5c 34 3d 44 14 01 be 48 34 9c bd
       0.06753475 0.044033896 -0.12605387 -0.07627159
000070 ed 09 43 3d df 88 d5 3d c2 f5 28 be 44 58 f1 3c
       0.047616888 0.10426497 -0.16499999 0.029461034
000080 e1 72 42 3e 91 90 47 3d b8 de 4f be be fd a1 3e
       0.18989135 0.048721854 -0.20299804 0.31638902
000090 bb 95 ed bd 1d 37 84 3e fb 17 14 3e 25 a0 3d be
       -0.116008244 0.25823298 0.14462273 -0.18518122
0000a0 bd 86 b5 3d 33 1e 8b be e4 6f ff 3d 76 27 04 3e
       0.0886359 -0.27171478 0.12472513 0.12905678
0000b0 81 0e 73 be 79 91 7e be 2e c5 38 be 84 b1 9b 3e
       -0.23736002 -0.24860181 -0.18043968 0.3040887
0000c0 71 b5 b3 3e 4f 0f 7b 3e 5a 98 de bd cf 53 1f be
       0.35099366 0.24517559 -0.108689025 -0.15559314
0000d0 2a 95 90 3c 16 c5 47 be 36 97 f3 bd 79 fd 40 be
       0.017649252 -0.19508776 -0.118940756 -0.18846692
0000e0 65 6d 88 bc 41 e5 ea 3d 7b 05 78 3e 20 83 29 3e
       -0.016653726 0.11469508 0.2422084 0.16553926
0000f0 f6 6f 8e 3e 8a 86 70 3d 24 bf 03 3f 24 2a c2 bd
       0.27819794 0.058722056 0.5146353 -0.09480694
000100 84 9c b1 bd 75 9a 1c bd 86 09 a8 3d d3 a6 01 3e
       -0.08672431 -0.03823324 0.082049415 0.12661295
000110 09 7f 76 be 0a 17 93 3e d2 a4 56 3e 8c e9 61 be
       -0.24071898 0.28728515 0.20961311 -0.22061747
000120 8a 3e 20 3e 2e 50 a8 3d 55 65 ce 3d a7 15 c0 3c
       0.15648857 0.08218418 0.10077921 0.023447825
000130 d0 05 6f 3d c9 ee 75 3c 09 a0 b2 bd 27 3d 32 3e
       0.058355153 0.015010544 -0.087219305 0.1740614
000140 32 66 da bd 2e 88 6b 3e 02 41 24 3d 63 52 4c be
       -0.106640235 0.23001167 0.04010106 -0.19953303
000150 b6 d0 0a 3e a1 36 27 bd 79 35 c9 bb 4d c7 45 be
       0.1355618 -0.040823583 -0.0061404076 -0.19314308
000160 f0 1e d8 bd 0b 0e 25 bd 52 29 4c 3d 7d 46 80 bd
       -0.10552776 -0.040296596 0.049844094 -0.062634446
000170 3c 76 80 3d 22 2e 38 3d 46 23 61 3e 9a 28 28 be
       0.062725514 0.04496587 0.21986112 -0.16421738
000180 4d 4a a8 bd 40 a6 0d 3c 80 50 ee 3d c6 8b 32 bd
       -0.08217297 0.008645594 0.11636448 -0.04359033
000190 67 f7 5e 3e 19 78 07 be 0a 7b 21 be e0 b7 f3 3d
       0.21774064 -0.13229407 -0.15769592 0.11900306
0001a0 a8 12 9d bd 79 21 ad 3d b2 39 9e bd 81 fd c8 3c
       -0.07669574 0.0845365 -0.07725848 0.024534943
0001b0 e3 fe 85 3d f5 52 63 3b 4e dc cc 3d 45 69 d4 bd
       0.065427564 0.0034686897 0.10002957 -0.10371641
0001c0 2a 63 26 be 95 97 ee bd 57 56 1e bd 03 ef a1 3c
       -0.16248766 -0.11650006 -0.03865656 0.01976729
0001d0 08 13 81 3d 0d de 38 3e ea a4 c8 3c 7b 62 27 3e
       0.06302458 0.18053456 0.0244927 0.16346161
0001e0 fc 18 38 bd a7 b8 32 be 16 d6 da 3c ee 63 8c be
       -0.044945702 -0.17453252 0.026713412 -0.2741999
0001f0 ed bf e2 bd 2d f9 aa bd c6 3c 21 be ab d7 52 3e
       -0.11071763 -0.08348308 -0.1574584 0.20590083
000200 a1 55 20 3d af ef 2b 3e ff a4 94 3e 7a da 9d be
       0.039144162 0.16790651 0.29032132 -0.30830747
000210 6a ca 80 3e 2a 48 3d be 70 95 0c be 56 89 40 3e
       0.2515443 -0.1848456 -0.13728881 0.1880239
000220 c9 bd fd bd 25 36 0d 3d cc 0a 5f bd 64 6c a5 3d
       -0.12389714 0.034475464 -0.054453656 0.080773145
000230 62 5d b2 3d ba b7 e5 3d cf a0 aa 3b 84 e3 99 be
       0.087092176 0.11216684 0.005207158 -0.30056393
000240 ee 05 2a be ed f1 12 be 8a d7 b0 bd 2d 8a 63 3d
       -0.16603824 -0.143501 -0.08634861 0.055551697
000250 aa 82 a2 bd fb 4b db 3d 60 8f 31 3c 3b 7e 7e 3e
       -0.079350784 0.107078515 0.010837406 0.2485284
000260 e7 a5 c8 3d ad e8 ac bd e6 09 5c be 47 0a 4d 3e
       0.09797268 -0.08442817 -0.21488151 0.20023452
000270 e1 79 0e 3e 0d 54 c1 3d 0e 7a 99 be 94 ed d0 bd
       0.1391368 0.094398595 -0.29975933 -0.102015644
000280 f7 3f 0c be 78 7d 44 3e c6 cc f9 3d b5 eb 20 be
       -0.13696276 0.19188488 0.121972606 -0.15714915
000290 7e 78 60 3e 6b cf 8a be df e5 0c be 16 12 d0 3d
       0.21920964 -0.27111372 -0.13759564 0.101596996
0002a0 1e 0d d6 3b e6 06 ab bc 09 78 19 be c8 17 8e bd
       0.0065323254 -0.020877313 -0.14987196 -0.0693813
0002b0 c8 cc f6 bb 05 b0 a3 bd 9b 58 cc 3a 2f d6 9a be
       -0.007531736 -0.079925574 0.0015590371 -0.30241534
0002c0 2e 2b 34 be bc b1 c2 be a6 6f ba 3b da 6e 19 bd
       -0.17594597 -0.38026226 0.005689579 -0.037459232
0002d0 e7 3e b0 bd e7 0b 11 3e fe 3f 40 be 44 77 89 3e
       -0.08605748 0.14164697 -0.18774411 0.26848805
0002e0 9d dc 88 3e 47 a3 ac bc ba 0b 05 be af 4c 84 3d
       0.26730815 -0.02107395 -0.12992755 0.06459939
0002f0 90 b8 df bd 54 77 fb 3d ea 25 78 bd 1a 9f 83 bb
       -0.109238744 0.122786194 -0.060583033 -0.004016769
000300 c5 8b 08 be 62 f2 85 3d c8 c3 8e 3c 16 f8 17 3e
       -0.13334568 0.065403715 0.01742734 0.14840731
000310 e4 96 c1 bd f0 8a e9 3d 4a e1 16 3e 3b 08 15 be
       -0.09452608 0.11403453 0.14734378 -0.14553921
000320 27 33 40 bd eb 2d ac bd 08 87 36 3c cf fb af 3d
       -0.046923783 -0.08407196 0.011140592 0.085929506
000330 b2 8d 32 3d 3f 52 6a bd 1d 43 90 bb fe 41 43 3e
       0.043592162 -0.057207342 -0.004402532 0.19068143
000340 43 65 e2 3d 29 e3 c5 3d 77 f7 15 be d2 96 19 3e
       0.110544704 0.09662468 -0.14645182 0.1499894
000350 8e a9 07 bd fa 1b 3c bc 6c c3 33 bd 7b 48 f9 bd
       -0.033120684 -0.0114812795 -0.04388754 -0.12172028
000360 c6 c7 4e be 6c 2f 28 3e 99 f0 36 3d ef 66 0a be
       -0.20193395 0.1642434 0.044663046 -0.13515829
000370 12 80 64 be b2 ec df bc a3 bf 85 3d de 00 9b 3c
       -0.2231448 -0.027334545 0.065306924 0.018921312
000380 91 13 0a 3c b4 7a 3d 3d d2 e7 18 bd 8d e0 18 bd
       0.008427517 0.046259597 -0.037330456 -0.037323523
000390 ba 38 96 bd 1f a8 1b 3e 02 f9 e4 bd f6 d2 a5 3c
       -0.073350385 0.15200852 -0.11180307 0.020242196
0003a0 68 39 80 bd 7d 0a b2 bb 19 59 63 bd 57 a1 4c bd
       -0.062609494 -0.005433379 -0.055504892 -0.049958553
0003b0 a7 2a b3 bb 36 3e a1 3d b3 55 18 3e 6e 75 2b bd
       -0.005467731 0.07873194 0.14876442 -0.041860037
0003c0 f3 8e 29 bc 44 ae 83 3b b9 ae cc bd 08 61 38 bd
       -0.010349023 0.004018577 -0.09994263 -0.04501441
0003d0 22 4f 93 bd 57 2e 10 be 77 e4 98 bc d3 0e ed bd
       -0.07192828 -0.14080177 -0.018663628 -0.11575093
0003e0 a4 c4 99 bc 9f e3 09 be 7c 58 07 be 46 cc bc 3d
       -0.018770523 -0.13465737 -0.13217348 0.092186496
0003f0 d8 4d 84 bd 8b 8b f4 3d 2a e3 45 3d 39 46 46 be
       -0.0646016 0.11940678 0.048312344 -0.19362725

linear_layer_2.bias f4 [32]
000000 8c 91 4d 3e 91 31 27 be 0c 21 4e bc ae 73 86 3a
       0.20075053 -0.16327502 -0.012581121 0.0010257864
000010 9c d0 96 3d 86 3b e2 3d 12 d5 e0 3d eb b8 6b 3c
       0.07364008 0.110465094 0.1097814 0.01438735
000020 2a 3c 98 3a 4d e6 a0 bc 3e cf d5 bd 93 46 61 3b
       0.001161461 -0.019641066 -0.10439919 0.003437434
000030 40 56 01 be f9 91 72 be 6e 23 cf bc fd 63 ec 3d
       -0.12630558 -0.23688497 -0.025285449 0.11542509
000040 ed 57 89 3d be cb 74 3d b9 3b 6b 3d 1d 03 08 3d
       0.06706224 0.059764616 0.057430003 0.033206094
000050 74 9a 1b 3c 76 29 bc 3d 75 6d 92 3e c7 46 15 3e
       0.009497274 0.091875955 0.28599134 0.1457778
000060 ff 28 e0 3d e0 c6 96 3d 7d 56 20 3d 7c 47 70 3c
       0.109453194 0.07362151 0.03914498 0.014665481
000070 48 30 98 3d 07 e9 55 3e 86 32 ff 3c 98 7e 69 3e
       0.07431084 0.20889674 0.031152021 0.22802198

mean_action_layer.weight f4 [1, 32]
000000 11 e3 8d bd 18 14 01 3e e8 99 9c 3d 69 32 05 be
       -0.06928075 0.12605321 0.07646543 -0.13007511
000010 8b 62 0a be 26 20 1d be 19 77 65 3e 01 64 fa bb
       -0.13514154 -0.15344295 0.22408713 -0.007641316
000020 b6 f4 35 be bf b9 1a be bd 99 2c be 79 51 9a be
       -0.17769131 -0.15109919 -0.16855522 -0.30140284
000030 56 47 4a bd 39 0a bc be 78 95 22 bd 5a 1b ab 3e
       -0.049384438 -0.3672655 -0.039693326 0.33419305
000040 19 1e b0 bd d4 03 85 bd f9 d4 66 bd a5 96 5c 3e
       -0.08599491 -0.06494871 -0.05635545 0.21541841
000050 a4 fb 27 3e d4 57 ee bd e6 74 d2 3d 86 fe 52 3e
       0.16404587 -0.11637846 0.10276203 0.20604905
000060 ae 13 a7 bc c9 54 19 be 08 42 80 3e ea 3c a2 bd
       -0.020395126 -0.14973749 0.25050378 -0.07921775
000070 5a 7b a3 bd 10 b2 96 bd 5f 4d 21 be 3c 10 ee 3d
       -0.07982512 -0.073581815 -0.15752171 0.1162419
