envs/runs/22-03-17_09-31-46-056018_PPO/checkpoints/5000_policy.pt (torch, 7251 bytes, 5 tensors)

linear_layer_1.weight f4 [32, 4]
0.16103065 -0.017102132 -0.3877335 -0.07803911 0.060309093 -0.23648344 0.53706616 0.04301243
-0.0017770849 -0.05082736 0.45278797 0.13824075 -0.09085958 0.10776785 -0.5968481 -0.10668059
-0.26924038 -0.29850978 0.9301768 0.093924515 0.0547671 0.11643567 -0.6431157 -0.11263584
0.31056222 0.055677485 -0.6163164 0.034669008 -0.053877726 -0.08794431 0.38386843 0.12882589
0.056154385 0.0019904808 -0.48285547 -0.1562066 0.13654324 -0.14863446 0.3336353 0.29373473
0.1036229 0.12579913 -0.2538485 -0.17749968 -0.025002936 -0.1584545 -0.41523397 -0.15201704
-0.06595179 0.04194547 0.32947823 -0.0008884411 0.0028940924 -0.06802672 0.5154114 0.12562214
-0.089669324 0.0059706876 0.5740839 0.11088784 0.07178499 0.009106217 -0.5870225 -0.15019576
0.03129975 -0.015133973 -0.49981698 -0.19469304 0.51831764 0.06906068 -0.76210093 -0.030402279
0.018754859 -0.08001792 0.2714107 0.12939641 -0.119011246 0.030820418 0.45243636 -0.0077903974
0.023712458 0.010202318 -0.4864952 -0.07743078 -0.25262573 -0.16413611 0.61668766 0.02024341
-0.092367284 0.012137736 0.10719508 0.16890973 -0.18725538 0.012156357 0.6283315 -0.005740838
-0.13559014 0.042104654 0.60974264 -0.030234054 -0.11938609 0.08405808 -0.29304948 -0.011858166
-0.047964502 0.07257887 -0.6228084 -0.24888796 -0.09949749 0.1261956 -0.08598243 -0.05225848
-0.007948483 0.084714934 -0.07103766 -0.12389203 -0.03873079 0.009967989 0.14040148 -0.020999337
0.012810665 0.09612838 -0.28288713 -0.15779504 0.023921957 -0.04882501 0.32645994 0.1853948
00000000: 38e5 243e c519 8cbc 0185 c6be f8d2 9fbd
00000010: ab06 773d b728 72be 2b7d 093f cd2d 303d
00000020: 13ed e8ba 5a30 50bd d3d3 e73e fc8e 0d3e
00000030: 9614 babd 64b5 dc3d 09cb 18bf 5a7b dabd
00000040: e0d9 89be 46d6 98be 1120 6e3f 7f5b c03d
00000050: 7753 603d d375 ee3d 3ba3 24bf 9fad e6bd
00000060: 0302 9f3e 130e 643d e9c6 1dbf 1701 0e3d
00000070: e4ae 5cbd 251c b4bd 678a c43e efea 033e
00000080: 2402 663d ba72 023b d538 f7be 9ff4 1fbe
00000090: fed1 0b3e a233 18be 3fd2 aa3e 6664 963e
000000a0: 3e38 d43d 7dd1 003e 6ef8 81be 7ac2 35be
000000b0: f5d2 ccbc e541 22be 8c99 d4be 5baa 1bbe
000000c0: bb11 87bd 03cf 2b3d 5fb1 a83e 46e6 68ba
000000d0: d0aa 3d3b 9851 8bbd 00f2 033f 17a3 003e
000000e0: 8da4 b7bd c2a5 c33b 2af7 123f 2a19 e33d
000000f0: 0204 933d 3e32 153c 1b47 16bf ebcc 19be
00000100: 2b34 003d 7cf4 77bc 03e8 ffbe 9d5d 47be
00000110: 77b0 043f b06f 8d3d 0c19 43bf 330e f9bc
00000120: caa3 993c 6fe0 a3bd 58f6 8a3e 7e80 043e
00000130: 2bbc f3bd 1a7b fc3c bda5 e73e 9746 ffbb
00000140: a140 c23c a027 273c e615 f9be 0794 9ebd
00000150: 2958 81be 4c13 28be 3edf 1d3f 82d5 a53c
00000160: 0f2b bdbd 5bdd 463c 1889 db3d acf6 2c3e
00000170: e0bf 3fbe 752b 473c 55da 203f a41d bcbb
00000180: 24d8 0abe ee75 2c3d 1818 1c3f 68ad f7bc
00000190: b280 f4bd a526 ac3d 950a 96be c148 42bc
000001a0: 6d76 44bd 3ba4 943d 5f70 1fbf 7cdc 7ebe
000001b0: 57c5 cbbd 6b39 013e 8e17 b0bd fd0c 56bd
000001c0: 5b3a 02bc 067f ad3d 317c 91bd 1bbb fdbd
000001d0: 2da4 1ebd c750 233c 68c5 0f3e cd06 acbc
000001e0: d3e3 513c f5de c43d 95d6 90be 0695 21be
000001f0: fbf7 c33c bcfc 47bd c225 a73e 22d8 3d3e

linear_layer_1.bias f4 [32]
-0.113134325 0.041284274 0.13520423 0.08268602 0.18905766 0.08346266 0.21034102 -0.06611453
0.17848535 0.181368 0.21254493 0.032706633 -0.1843411 0.116239004 0.19586983 -0.06324573
-0.03299564 0.095102616 -0.0482863 -0.0002645377 0.038005367 -0.09872377 0.18205619 0.15128441
0.06971369 -0.008118662 0.046372984 0.019401038 -0.021767013 0.0064027915 -0.03229501 0.066830404
00000000: f8b2 e7bd b319 293d fa72 0a3e 4a57 a93d
00000010: 5598 413e 79ee aa3d a363 573e 0e67 87bd
00000020: ddc4 363e 88b8 393e 61a5 593e 64f7 053d
00000030: eac3 3cbe b70e ee3d 1a92 483e fa86 81bd
00000040: 7026 07bd 29c5 c23d dbc7 45bd a6b1 8ab9
00000050: 84ab 1b3d b02f cabd f06c 3a3e 4dea 1a3e
00000060: 0dc6 8e3d 2304 05bc 99f1 3d3d edee 9e3c
00000070: bc50 b2bc 82ce d13b c647 04bd 61de 883d

linear_layer_2.weight f4 [32, 32]
-0.12192311 0.14349636 -0.014714402 -0.27916303 0.19957955 -0.33389518 0.023412753 0.26347578
0.06570764 0.08951095 -0.2433336 -0.110956006 0.09323002 0.063744165 0.107499234 0.030992692
-0.06484418 -0.11707497 0.10482653 0.08713702 -0.048613645 0.052521218 0.028153956 0.33715725
0.08512551 0.054492768 -0.112643644 -0.056961328 0.052850254 0.10752105 -0.15805013 0.037275027
0.14201844 0.016384544 -0.1676009 0.29601648 -0.13629772 0.2286888 0.15415642 -0.14648387
0.053104315 -0.23317774 0.09750648 0.08032528 -0.22150292 -0.214113 -0.1520075 0.24373144
0.2941942 0.2426005 -0.076043755 -0.113858774 -0.028098864 -0.22384433 -0.08297226 -0.18677579
-0.0076446366 0.13675328 0.19341926 0.17393334 0.23057744 0.029278668 0.44936767 -0.055315517
-0.089420184 -0.04709501 0.07946848 0.09024106 -0.26262245 0.25556853 0.20137525 -0.19648077
0.13295975 0.08093342 0.074616864 8.1970604e-05 0.08201344 0.012628124 -0.094113015 0.15950613
-0.126267 0.23696813 0.057425007 -0.194791 0.11277435 -0.04558935 -0.010522954 -0.21442302
-0.12350669 -0.04735174 0.026684819 -0.08627626 0.04857295 0.03371524 0.20297647 -0.16415957
-0.08734859 0.008205354 0.12606321 -0.01696885 0.23088568 -0.110339925 -0.14502098 0.10624735
-0.064926066 0.09471573 -0.059832346 0.03551038 0.04686437 0.0130867185 0.112708874 -0.10117255
-0.15530834 -0.11921246 -0.045317046 0.023487695 0.07195434 0.1772944 0.0362474 0.18169995
-0.028178655 -0.16140218 0.035917226 -0.25509018 -0.10895271 -0.08305986 -0.1543966 0.21684617
0.03470884 0.16977051 0.29933783 -0.27662823 0.2676691 -0.15866487 -0.12486427 0.1719062
-0.10870647 0.043244112 -0.033791214 0.09505409 0.066094235 0.12112765 0.017848205 -0.29552203
-0.1558572 -0.14812742 -0.09614075 0.058375668 -0.06680432 0.10580718 0.021878298 0.269885
0.11778112 -0.07211696 -0.2018629 0.22309038 0.14382114 0.09753146 -0.29360628 -0.09314003
-0.14109758 0.19512346 0.13090496 -0.12378911 0.23716684 -0.24296452 -0.12482476 0.083332755
0.023714498 -0.012459032 -0.1270628 -0.053445667 -0.030218804 -0.07096182 0.01436703 -0.2962335
-0.1642797 -0.3855351 -0.0057431688 -0.03482288 -0.071816765 0.14117052 -0.17689446 0.29110762
0.2882973 -0.009365477 -0.11510102 0.08757458 -0.10351437 0.12675963 -0.053108376 0.004287371
-0.12978826 0.060090356 0.0098257875 0.11291766 -0.11587071 0.08465668 0.1364061 -0.12431882
-0.06692162 -0.09028831 -0.013817629 0.0679839 0.067620955 -0.0649033 -0.016451782 0.18269233
0.09693731 0.10575904 -0.13175584 0.14830124 -0.05048046 -0.013650931 -0.05340677 -0.146194
-0.22457129 0.15314625 0.027047774 -0.16026331 -0.23110673 -0.034040753 0.055306192 0.013294178
0.003234932 0.053698473 -0.03835027 -0.024675736 -0.050693724 0.14874494 -0.12351322 0.01541567
-0.0543811 -0.012273746 -0.048976332 -0.049454994 -0.011716407 0.07905344 0.14975984 -0.04360265
-0.012030377 -0.024195964 -0.10888636 -0.040455393 -0.065922506 -0.1284926 -0.02152203 -0.09692375
0.0016148232 -0.1333864 -0.12860604 0.11198458 -0.060391594 0.13225201 0.050674144 -0.20160533
00000000: d3b2 f9bd b6f0 123e ad14 71bc 75ee 8ebe
00000010: 955e 4c3e 4ff4 aabe 1acc bf3c 4ce6 863e
00000020: ba91 863d 8451 b73d 712c 79be e73c e3bd
00000030: 61ef be3d 4d8c 823d 8f28 dc3d 63e4 fd3c
00000040: 07cd 84bd 00c5 efbd 4baf d63d e574 b23d
00000050: 1a1f 47bd 7d20 573d 20a3 e63c e09f ac3e
00000060: 4956 ae3d cf33 5f3d b6b1 e6bd 4850 69bd
00000070: 8279 583d ff33 dc3d e5d7 21be b3ad 183d
00000080: 486d 113e e138 863c 929f 2bbe 798f 973e
00000090: a191 0bbe 662d 6a3e 2edb 1d3e deff 15be
000000a0: e983 593d 25c6 6ebe 7ab1 c73d 9581 a43d
000000b0: a9d1 62be 7040 5bbe dba7 1bbe bc94 793e
000000c0: 9fa0 963e 446c 783e d4bc 9bbd ca2e e9bd
000000d0: 972f e6bc 7337 65be 5ced a9bd 2742 3fbe
000000e0: dc7f fabb 0d09 0c3e b30f 463e 951b 323e
000000f0: 7e1c 6c3e d1d9 ef3c 8513 e63e 8692 62bd
00000100: ee21 b7bd b2e6 40bd 5fc0 a23d 4ed0 b83d
00000110: 7376 86be e1d9 823e 5035 4e3e 4132 49be
00000120: 9a26 083e 6cc0 a53d bad0 983d a2e7 ab38
00000130: aaf6 a73d 31e6 4e3c 53be c0bd 9355 233e
00000140: 234c 01be c6a7 723e 7c36 6b3d 4b77 47be
00000150: 3df6 e63d e6bb 3abd 7868 2cbc b591 5bbe
00000160: 13f1 fcbd e6f3 41bd 1f9a da3c 9cb1 b0bd
00000170: 6ef4 463d fe18 0a3d 10d9 4f3e 7219 28be
00000180: d1e3 b2bd c06f 063c b716 013e 4202 8bbc
00000190: 4c6d 6c3e e6f9 e1bd 6180 14be 3698 d93d
000001a0: f5f7 84bd 52fa c13d c312 75bd 5573 113d
000001b0: dbf4 3f3d ad69 563c e9d3 e63d 8e33 cfbd
000001c0: 2609 1fbe aa25 f4bd 5e9e 39bd 4469 c03c
000001d0: cc5c 933d aa8c 353e 2778 143d 8d0f 3a3e
000001e0: ecd6 e6bc 9d46 25be f11d 133d 2e9b 82be
000001f0: 9922 dfbd 4a1b aabd 241a 1ebe ec0c 5e3e
00000200: db2a 0e3d 52d8 2d3e cf42 993e 37a2 8dbe
00000210: ed0b 893e 0b79 22be d7b8 ffbd 2e08 303e
00000220: 7fa1 debd bd20 313d a868 0abd b8ab c23d
00000230: 6a5c 873d c611 f83d 6636 923c aa4e 97be
00000240: 0899 1fbe b7ae 17be 71e5 c4bd 531b 6f3d
00000250: b4d0 88bd 6fb1 d83d 1e3a b33c 5e2e 8a3e
00000260: 3a37 f13d 0fb2 93bd 26b5 4ebe ce71 643e
00000270: d945 133e 93be c73d 9053 96be 33c0 bebd
00000280: e27b 10be 72ce 473e f30b 063e 2585 fdbd
00000290: dddb 723e b1cb 78be 20a4 ffbd 5daa aa3d
000002a0: e844 c23c f820 4cbc c01c 02be d8e9 5abd
000002b0: 6d8d f7bc 6e54 91bd b163 6b3c ebab 97be
000002c0: f038 28be db64 c5be 3131 bcbb 70a2 0ebd
000002d0: ab14 93bd 018f 103e d223 35be 0f0c 953e
000002e0: b49b 933e a871 19bc 15ba ebbd 4d5a b33d
000002f0: 58ff d3bd 47cd 013e 2b88 59bd 137d 8c3b
00000300: 37e7 04be 4e21 763d 57fc 203c 6041 e73d
00000310: 9f4d edbd 7b60 ad3d 0aae 0b3e de9a febd
00000320: 340e 89bd 14e9 b8bd 5663 62bc 253b 8b3d
00000330: db7c 8a3d 05ec 84bd e3c5 86bc b313 3b3e
00000340: 1287 c63d 3298 d83d 01eb 06be 48dc 173e
00000350: 99c4 4ebd 28a8 5fbc 0fc1 5abd e1b3 15be
00000360: 04f6 65be 5fd2 1c3e 4b93 dd3c 111c 24be
00000370: 3ea7 6cbe 516e 0bbd bf88 623d d3cf 593c
00000380: 2701 543b eef2 5b3d 2c15 1dbd c524 cabc
00000390: 39a4 4fbd 9850 183e 80f4 fcbd 0292 7c3c
000003a0: b7be 5ebd d217 49bc 689b 48bd 5291 4abd
000003b0: 2cf6 3fbc c5e6 a13d a55a 193e b198 32bd
000003c0: 0f1b 45bc 9d36 c6bc d0ff debd 8eb4 25bd
000003d0: 6102 87bd 9093 03be f84e b0bc f67f c6bd
000003e0: 7aa8 d33a 7296 08be 4db1 03be 2c58 e53d
000003f0: 2d5d 77bd 126d 073e b18f 4f3d a171 4ebe

linear_layer_2.bias f4 [32]
0.21877159 -0.1702845 -0.03336525 0.018054852 0.09324703 0.13148277 0.08751357 0.021504527
0.021530673 -0.0007601046 -0.08195615 0.023979891 -0.10680832 -0.21602663 -0.0025104277 0.09663086
0.083890766 0.07712244 0.07393812 0.023947136 -0.00039078272 0.10878523 0.26603886 0.12216695
0.11820505 0.09033687 0.024520647 0.03445947 0.092707135 0.227956 0.052047748 0.21379179
00000000: a905 603e 0f5f 2ebe 00aa 08bd c5e7 933c
00000010: 4df8 be3d 6ba3 063e 513a b33d 432a b03c
00000020: 1861 b03c c241 47ba a0d8 a7bd 7a71 c43c
00000030: 52be dabd 1636 5dbe fd85 24bb 66e6 c53d
00000040: ecce ab3d 5ff2 9d3d de6c 973d c92c c43c
00000050: f8e1 ccb9 caca de3d 3f36 883e aa32 fa3d
00000060: 7d15 f23d 8902 b93d 86df c83c 6025 0d3d
00000070: 3ddd bd3d 4c6d 693e 0530 553d 3cec 5a3e

mean_action_layer.weight f4 [1, 32]
-0.07442707 0.09587133 0.062418893 -0.12785786 -0.1352364 -0.15640233 0.17131256 0.008088068
-0.15635042 -0.13977085 -0.1327248 -0.28534803 0.002843934 -0.33467448 0.011750737 0.30003586
-0.08622642 -0.06588413 -0.0549781 0.18573406 0.13714224 -0.10761993 0.07267437 0.18187435
-0.015753936 -0.12182254 0.22349109 -0.097388804 -0.082285315 -0.082384594 -0.16119991 0.086325355
00000000: 386d 98bd 3058 c43d f4aa 7f3d 2ced 02be
00000010: 697b 0abe ef27 20be 8f6c 2f3e d183 043c
00000020: 531a 20be 1720 0fbe 03e9 07be 2319 92be
00000030: 4c61 3a3b 745a abbe 2a86 403c 4d9e 993e
00000040: 7a97 b0bd 42ee 86bd b730 61bd 1231 3e3e
00000050: 046f 0c3e d667 dcbd 4dd6 943d 453d 3a3e
00000060: 660e 81bc 197e f9bd d9da 643e c873 c7bd
00000070: 3485 a8bd 41b9 a8bd 9711 25be 59cb b03d
