envs/runs/22-03-17_09-31-46-056018_PPO/checkpoints/6000_policy.pt (torch, 7251 bytes, 5 tensors)

linear_layer_1.weight f4 [32, 4]
0.15644704 -0.013577291 -0.46621737 -0.063997455 0.059944365 -0.2379406 0.5991449 0.031964913
0.002508451 -0.04169193 0.5376029 0.13797496 -0.0957686 0.1010855 -0.6639463 -0.10528225
-0.26887596 -0.3003533 1.0022553 0.0827645 0.04893653 0.107917406 -0.71441245 -0.1131133
0.30279666 0.04735076 -0.68090725 0.033590503 -0.04855216 -0.07731665 0.4617515 0.132144
0.05202678 0.0048841326 -0.54633164 -0.14539537 0.13857062 -0.14645109 0.41552776 0.28540814
0.09738468 0.118969224 -0.32186863 -0.1768482 -0.02742361 -0.12698838 -0.4246793 -0.11768429
-0.055181082 0.053188954 0.38705334 0.0055855974 0.006475183 -0.06207742 0.5970525 0.121697254
-0.08549462 0.0125346845 0.66447455 0.107272096 0.06785125 0.018147873 -0.64801544 -0.13112974
0.028362434 -0.0012920854 -0.55456275 -0.1709415 0.51079357 0.05954571 -0.8424628 -0.03117455
0.021481473 -0.08668024 0.29846016 0.116650686 -0.11107708 0.03313855 0.53390425 -0.015480583
0.020039946 0.011244868 -0.55308217 -0.06784961 -0.24769436 -0.16524255 0.6718406 0.010607605
-0.08835431 0.01663978 0.202341 0.16242455 -0.18144983 0.02380796 0.7155286 -0.0032499942
-0.12935731 0.05236962 0.6991708 -0.029570533 -0.106087916 0.08331397 -0.24984565 -0.011238566
-0.04944807 0.08454865 -0.67909676 -0.22750448 -0.0828302 0.13975641 0.0073404787 -0.04492314
-0.001127815 0.10740988 -0.07135789 -0.09339755 -0.02382146 0.057710916 0.22529146 0.02470735
0.008351665 0.09696106 -0.34732467 -0.1475623 0.023995975 -0.062807575 0.4028671 0.15932688
00000000: a733 203e 4973 5ebc 0bb4 eebe 1911 83bd
00000010: 3988 753d b3a6 73be 8f61 193f a4ed 023d
00000020: d364 243b 28c5 2abd 58a0 093f 4f49 0d3e
00000030: 5422 c4bd ea05 cf3d 62f8 29bf 389e d7bd
00000040: 1caa 89be e8c7 99be e749 803f 6f80 a93d
00000050: ac71 483d cd03 dd3d bce3 36bf f2a7 e7bd
00000060: 2a08 9b3e dff2 413d f04f 2ebf 3296 093d
00000070: a1de 46bd 3158 9ebd b16a ec3e c250 073e
00000080: 081a 553d 130b a03b 64dc 0bbf 86e2 14be
00000090: 75e5 0d3e 46f7 15be 0ec0 d43e 0421 923e
000000a0: 9e71 c73d 23a6 f33d f7cb a4be b217 35be
000000b0: 7ba7 e0bc 3e09 02be 916f d9be 7604 f1bd
000000c0: 8f05 62bd a9dc 593d db2b c63e 6307 b73b
000000d0: c62d d43b e544 7ebd 6fd8 183f 693c f93d
000000e0: ce17 afbd 475e 4d3c 011b 2a3f 79b1 db3d
000000f0: 99f5 8a3d d9aa 943c 57e4 25bf e046 06be
00000100: 5658 e83c 315b a9ba d3f7 0dbf 4a0b 2fbe
00000110: 5ec3 023f 34e6 733d a4ab 57bf c561 ffbc
00000120: eaf9 af3c 6985 b1bd c5cf 983e 8ee6 ee3d
00000130: 617c e3bd 4abc 073d f3ad 083f 45a2 7dbc
00000140: d02a a43c 653c 383c cb96 0dbf bcf4 8abd
00000150: 97a3 7dbe 5835 29be bffd 2b3f 85cb 2d3c
00000160: 1bf3 b4bd 2650 883c 7b32 4f3e 9f52 263e
00000170: fccd 39be e908 c33c e22c 373f dbfd 54bb
00000180: 3e76 04be 8781 563d dcfc 323f e73d f2bc
00000190: 9f44 d9bd 84a0 aa3d 8ad7 7fbe f621 38bc
000001a0: 0f8a 4abd d827 ad3d 49d9 2dbf eff6 68be
000001b0: e1a2 a9bd 4e1c 0f3e 6688 f03b 5401 38bd
000001c0: 31d3 93ba b6f9 db3d 1624 92bd 3747 bfbd
000001d0: 3925 c3bc 4862 6c3d ceb2 663e 1267 ca3c
000001e0: 6cd5 083c 8593 c63d 8ad4 b1be 921a 17be
000001f0: 3593 c43c 42a1 80bd 9944 ce3e 9626 233e

linear_layer_1.bias f4 [32]
-0.13342674 0.059870023 0.15568274 0.061338015 0.20653026 0.06127966 0.18559295 -0.046269454
0.15980734 0.19898053 0.190349 0.022205444 -0.15895142 0.13622563 0.21635613 -0.08378573
-0.052146886 0.06997657 -0.030768678 0.023853738 0.018781174 -0.074943714 0.19928157 0.17354007
0.09234216 -0.0028070528 0.028413331 0.034245756 -0.02885131 0.013073089 -0.05289662 0.08327993
00000000: 05a1 08be 453a 753d 4c6b 1f3e 923d 7b3d
00000010: ab7c 533e 6100 7b3d 140c 3e3e 0a85 3dbd
00000020: 89a4 233e 8dc1 4b3e d9ea 423e 31e8 b53c
00000030: 29c4 22be bb7e 0b3e 768c 5d3e da97 abbd
00000040: f997 55bd e04f 8f3d 980e fcbc ea68 c33c
00000050: fada 993c 177c 99bd 7810 4c3e 7db4 313e
00000060: e31d bd3d 88f6 37bb 13c3 e83c 4745 0c3d
00000070: 9559 ecbc 8230 563c 20aa 58bd ab8e aa3d

linear_layer_2.weight f4 [32, 32]
-0.13445911 0.14162414 0.0028718163 -0.25968942 0.20861574 -0.31181625 0.043271296 0.24851708
0.078474626 0.1016154 -0.21840256 -0.106341735 0.07865668 0.08159713 0.12824045 0.026390428
-0.062013913 -0.10445356 0.09181931 0.1033961 -0.045353785 0.037027158 0.041063327 0.36395654
0.11999964 0.058354072 -0.10267403 -0.041617885 0.062922776 0.110262536 -0.15268734 0.043903638
0.13899997 -0.00015395897 -0.16697127 0.26813516 -0.15515038 0.19475101 0.13814588 -0.111040615
0.0260838 -0.22434738 0.06525585 0.059582867 -0.19932847 -0.21544705 -0.15867865 0.22519484
0.27068207 0.22793515 -0.0450784 -0.10671731 -0.05374061 -0.2213238 -0.07687385 -0.20742996
-0.030847367 0.15334836 0.16446203 0.18335335 0.21174957 0.03336089 0.41712973 -0.0386283
-0.07823108 -0.050617483 0.061818782 0.06812885 -0.2753662 0.22774848 0.17812999 -0.17639634
0.11516441 0.067869835 0.04540542 -0.008269016 0.10194536 -0.005571323 -0.11440857 0.16125357
-0.13191903 0.21816593 0.07206252 -0.20263256 0.10409721 -0.031042248 -0.02345276 -0.24122573
-0.15467381 -0.047474705 0.013845586 -0.09779159 0.042343706 0.0323383 0.19795582 -0.17007497
-0.1005215 0.006024426 0.14459866 0.0017445472 0.23992153 -0.08803943 -0.12411198 0.091325104
-0.052061807 0.10807106 -0.034629356 0.039404977 0.031637274 0.03181937 0.13397403 -0.10678929
-0.1536067 -0.10510245 -0.057755884 0.039010666 0.07484726 0.16072975 0.05008349 0.20823085
0.005738548 -0.15717494 0.044857603 -0.23919341 -0.100025564 -0.079399675 -0.15083846 0.2244699
0.021869715 0.16830608 0.31769562 -0.25740674 0.2769485 -0.1358957 -0.10367811 0.1564899
-0.09558534 0.056466967 -0.008305595 0.09937682 0.05056171 0.13982174 0.03897969 -0.3006056
-0.15360643 -0.13364483 -0.10876405 0.07334654 -0.06341384 0.089375086 0.035303973 0.29648867
0.15163924 -0.06877546 -0.1924418 0.23815525 0.15202802 0.099503964 -0.2895843 -0.08587558
-0.15388887 0.19429517 0.14945033 -0.10469098 0.24706689 -0.21995994 -0.10339442 0.067643546
0.037267845 0.0008688064 -0.10108639 -0.04877175 -0.04623826 -0.052027166 0.035669412 -0.3011132
-0.16179137 -0.37065837 -0.018537922 -0.01982563 -0.0681742 0.12511499 -0.1633582 0.31812596
0.32259512 -0.0063465573 -0.10555391 0.10246763 -0.09505466 0.12954283 -0.049071506 0.011539569
-0.122423775 0.05538753 -0.0019429827 0.09528727 -0.12815009 0.062417306 0.11978939 -0.10497468
-0.08289961 -0.09730935 -0.039019633 0.059633546 0.08347472 -0.07737723 -0.03103493 0.18222955
0.09016315 0.09329033 -0.11702497 0.14083597 -0.058866743 -0.0038040502 -0.060701698 -0.16789316
-0.25091013 0.15614524 0.014141259 -0.16624634 -0.23844826 -0.034107745 0.047240693 0.011515098
0.013351438 0.091734625 -0.046116542 -0.03634428 -0.022778027 0.14071329 -0.13158967 -3.444973e-05
-0.03574397 -0.02192369 -0.03659555 -0.028318541 -0.021489114 0.076241285 0.1417024 -0.02942883
0.006197178 -0.021815214 -0.118289836 -0.042977743 -0.05407087 -0.106664486 -0.03622879 -0.092374556
0.0072251395 -0.17248137 -0.11280796 0.07902293 -0.061593324 0.11941507 0.062343445 -0.21246773
00000000: a6af 09be eb05 113e 1535 3c3b 03f6 84be
00000010: 5d9f 553e 61a6 9fbe 3e3d 313d 437b 7e3e
00000020: 4eb7 a03d bc1b d03d eca4 5fbe b2c9 d9bd
00000030: c116 a13d 651c a73d 7751 033e bd30 d83c
00000040: 4d02 7ebd c0eb d5bd c30b bc3d 56c1 d33d
00000050: e4c4 39bd caa9 173d 0532 283d 8358 ba3e
00000060: 5fc2 f53d ae04 6f3d c346 d2bd 8477 2abd
00000070: a8dd 803d 53d1 e13d 125a 1cbe 4dd4 333d
00000080: 0256 0e3e 0c70 21b9 84fa 2abe 0349 893e
00000090: bedf 1ebe cf6c 473e 1d76 0d3e 4369 e3bd
000000a0: b1ad d53c 52bb 65be dca4 853d 2a0d 743d
000000b0: c31c 4cbe 279e 5cbe a87c 22be 7a99 663e
000000c0: d796 8a3e d567 693e 21a4 38bd 9b8e dabd
000000d0: 1d1f 5cbd b5a2 62be 0970 9dbd 8568 54be
000000e0: 9eb3 fcbc 5a07 1d3e bc68 283e fbc0 3b3e
000000f0: e1d4 583e 6ea5 083d 0792 d53e b538 1ebd
00000100: 9e37 a0bd 4754 4fbd b135 7d3d 2387 8b3d
00000110: ccfc 8cbe e636 693e b567 363e 3ea1 34be
00000120: 51db eb3d 57ff 8a3d 09fb 393d c47a 07bc
00000130: bbc8 d03d a58f b6bb 0a4f eabd a81f 253e
00000140: c815 07be e466 5f3e 8495 933d e97e 4fbe
00000150: eb30 d53d 504c febc 0120 c0bc e103 77be
00000160: d062 1ebe d674 42bd 99d8 623c f546 c8bd
00000170: 9870 2d3d 2a75 043d eeb4 4a3e 2228 2ebe
00000180: 37de cdbd 8c68 c53b ac11 143e 4aa9 e43a
00000190: fdad 753e 044e b4bd 6c2e febd a808 bb3d
000001a0: c33e 55bd 5c54 dd3d 83d7 0dbd 1d67 213d
000001b0: 1696 013d 0755 023d 7d30 093e 58b4 dabd
000001c0: 134b 1dbe f43f d7bd 6f91 6cbd a6c9 1f3d
000001d0: 8549 993d 5796 243e 5824 4d3d 783a 553e
000001e0: 6e0a bc3b 78f2 20be 9bbc 373d 1eef 74be
000001f0: 34da ccbd 4c9c a2bd 6675 1abe 70db 653e
00000200: 1e28 b33c 6e58 2c3e 00a9 a23e d1ca 83be
00000210: 32cc 8d3e 3e28 0bbe 3055 d4bd e33e 203e
00000220: 3fc2 c3bd e849 673d 3114 08bc 1386 cb3d
00000230: cc19 4f3d 6e2d 0f3e 2ba9 1f3d fae8 99be
00000240: 014b 1dbe 31da 08be b0bf debd b636 963d
00000250: 1edf 81bd 490a b73d e69a 103d 5dcd 973e
00000260: 5147 1b3e 26da 8cbd 770f 45be f8de 733e
00000270: 3cad 1b3e bcc8 cb3d 6544 94be 89df afbd
00000280: 0b95 1dbe 50f5 463e 8209 193e 3968 d6bd
00000290: 1aff 7c3e 2e3d 61be 74c0 d3bd b388 8a3d
000002a0: 2ba6 183d 9cc0 633a 6206 cfbd e3c4 47bd
000002b0: 5464 3dbd 701a 55bd 171a 123d 822b 9abe
000002c0: a3ac 25be efc6 bdbe d7dc 97bc 5c69 a2bc
000002d0: ea9e 8bbd 251e 003e 5f47 27be 68e1 a23e
000002e0: 302b a53e c8f6 cfbb a62c d8bd 8cda d13d
000002f0: 05ac c2bd e0a6 043e 34ff 48bd 7610 3d3c
00000300: 51b9 fabd 09de 623d aeab feba f925 c33d
00000310: c739 03be 4aa9 7f3d 2454 f53d f7fc d6bd
00000320: 45c7 a9bd 204a c7bd 0dd3 1fbd 4e42 743d
00000330: cbf4 aa3d f477 9ebd f73c febc 629a 3a3e
00000340: 75a7 b83d 000f bf3d caaa efbd 4e37 103e
00000350: 411e 71bd 5f4d 79bb 58a2 78bd 2fec 2bbe
00000360: 4b77 80be 8ae4 1f3e bdb0 673c 7b3c 2abe
00000370: c82b 74be 90b4 0bbd 757f 413d d2a9 3c3c
00000380: fdbf 5a3c 5ddf bb3d b3e4 3cbd bddd 14bd
00000390: fc98 babc 2517 103e 71bf 06be 1e7e 10b8
000003a0: 4568 12bd 4f99 b3bc 37e5 15bd 49fc e7bc
000003b0: f009 b0bc 6424 9c3d 6f1a 113e bb14 f1bc
000003c0: b211 cb3b d2b5 b2bc f141 f2bd 6e09 30bd
000003d0: 6b79 5dbd e972 dabd a464 14bd df2e bdbd
000003e0: ddc0 ec3b f59e 30be dc07 e7bd c6d6 a13d
000003f0: 4849 7cbd e38f f43d d75b 7f3d 2491 59be

linear_layer_2.bias f4 [32]
0.24085459 -0.19283254 -0.05918501 0.040589117 0.11606253 0.15474984 0.06730027 0.025190655
0.04572961 0.021152016 -0.058709756 0.045951854 -0.09128203 -0.19390024 -0.00548613 0.07407333
0.10539454 0.09876854 0.09534113 0.0035168014 -0.021288898 0.12964065 0.2457331 0.097147584
0.12879388 0.11030996 0.0039899168 0.056886185 0.1148549 0.2508167 0.07544692 0.19659324
00000000: 96a2 763e e575 45be fb6b 72bd c640 263d
00000010: 31b2 ed3d be76 1e3e b9d4 893d a25c ce3c
00000020: f94e 3b3d fe46 ad3c a479 70bd 0338 3c3d
00000030: 13f2 babd c98d 46be fec4 b3bb c2b3 973d
00000040: 18d9 d73d 2947 ca3d 3642 c33d 237a 663b
00000050: 0e66 aebc 85c0 043e 75a1 7b3e 50f5 c63d
00000060: 8be2 033e 30ea e13d d9bd 823b 7d01 693d
00000070: 0c39 eb3d 0c6b 803e ea83 9a3d bd4f 493e

mean_action_layer.weight f4 [1, 32]
-0.089308016 0.08936895 0.0473179 -0.1290815 -0.14752257 -0.16394839 0.14458528 -0.002304915
-0.14110346 -0.14132294 -0.10720572 -0.2836325 0.006502559 -0.3125248 0.017970674 0.27033025
-0.094324656 -0.07359009 -0.058155462 0.1699204 0.1217473 -0.10933929 0.050381638 0.1484251
-0.019853162 -0.110871516 0.20404597 -0.10205739 -0.09350778 -0.097413026 -0.17434919 0.066284545
00000000: 1fe7 b6bd 1107 b73d 6ad0 413d f12d 04be
00000010: 2810 17be 16e2 27be 2a0e 143e 0f0e 17bb
00000020: 6d7d 10be f6b6 10be ac8e dbbd 4738 91be
00000030: 6b13 d53b 4003 a0be 3c37 933c ba68 8a3e
00000040: 492d c1bd 67b6 96bd 6c34 6ebd 9dff 2d3e
00000050: a656 f93d 47ed dfbd fa5c 4e3d c0fc 173e
00000060: 19a3 a2bc 9b10 e3bd 6df1 503e 7703 d1bd
00000070: 0281 bfbd 7b80 c7bd 9888 32be 31c0 873d
