envs/runs/22-03-17_09-31-46-056018_PPO/checkpoints/7000_policy.pt (torch, 7251 bytes, 5 tensors)

linear_layer_1.weight f4 [32, 4]
00000000: 6741 363e fbaa 8fbc c1d1 debe 9519 87bd
00000010: ff5a 1b3d 34bb 71be 334b 133f 7874 013d
00000020: 19b4 8ebc 0c5c 11bd 7980 013f 55cb 103e
00000030: 2bbe a6bd a3b2 c13d d7f7 24bf 3718 e0bd
00000040: 908e 95be 8696 99be 4a3b 7a3f c6e9 a63d
00000050: 4548 843d 907d cc3d 7bbd 30bf 1950 f4bd
00000060: 8d29 a13e d0c8 223d 0111 28bf fdb3 dd3c
00000070: b85d 82bd 6d68 8ebd 66ef dd3e 8a83 0d3e
00000080: 6a75 883d 40fe 643a 3133 06bf 05e5 17be
00000090: a291 ee3d b570 10be 8234 c73e a36a 933e
000000a0: b2de e33d a319 e53d 9910 9abe 221b 3bbe
000000b0: f120 b1bc daca d2bd cb73 d7be 7851 c3bd
000000c0: 65e3 78bd c5fd 733d bcbc b93e ace7 423c
000000d0: 3243 5ebc 8593 67bd 339d 113f 67bd fe3d
000000e0: a921 dabd 1fba 973c 2ad2 203f 00cd e13d
000000f0: b305 b13d 9652 8e3c 4414 20bf 5952 05be
00000100: 2add 453d abc1 dd35 5dcd 08bf bd2b 2cbe
00000110: 8f0c 073f c51c 4f3d a775 50bf 82e3 1cbd
00000120: 9d6d d23c 7027 d1bd 2991 a53e 72e4 cb3d
00000130: 10cc 02be ceae 243d 9826 fb3e 5f84 3cbc
00000140: 4ea6 133d 9e82 d03b 3a2d 07bf ae1f 91bd
00000150: 6989 87be 5b45 2abe afe6 273f 35ab 0f3c
00000160: 367a eabd dc8e bb3c 3196 253e 0828 293e
00000170: ab7b 4dbe 3ea4 063d 01ee 2e3f cf76 4e3b
00000180: 833a 18be 851b 743d dc2f 293f c028 d1bc
00000190: 1a47 f2bd 3c7d ac3d 8c98 94be cf87 0fbc
000001a0: a458 ffbc e88a ae3d 5b2f 29bf 8f85 66be
000001b0: 181c e0bd fc40 163e d002 82bd 094a 2fbd
000001c0: 8b5a 89bb 9ac9 fa3d cf58 08be 0550 9ebd
000001d0: f089 3bbd e7b3 5f3d ec42 1a3e 036a 863c
000001e0: 2941 dc3c 5c49 be3d 8245 a7be 290e 19be
000001f0: f9b6 a03a 06a6 7bbd dadb c23e 6b7d 213e
0.17798387 -0.017537585 -0.43519405 -0.06596676 0.037928578 -0.23606569 0.5753662 0.031605214
-0.017419862 -0.035488173 0.5058666 0.14140065 -0.081417404 0.094579004 -0.64440674 -0.109421186
-0.2921033 -0.29997653 0.9774672 0.081500575 0.06459097 0.09984887 -0.69039124 -0.1192934
0.31477013 0.03974229 -0.65650946 0.027063364 -0.06365532 -0.069535114 0.4334671 0.1381971
0.0666302 0.0008735396 -0.5242186 -0.14833458 0.11648871 -0.14105494 0.38907248 0.28792295
0.1112646 0.111865304 -0.30090788 -0.18272069 -0.021622153 -0.10292597 -0.4208053 -0.09537023
-0.060763735 0.059568185 0.36276805 0.011896055 -0.013565825 -0.05653717 0.5688049 0.124384694
-0.106509514 0.018521367 0.62820685 0.11025429 0.08643665 0.017373364 -0.6253092 -0.13019694
0.04830662 1.6522148e-06 -0.5343836 -0.1681356 0.5275354 0.050564546 -0.81429523 -0.038302906
0.025687033 -0.102126 0.3233731 0.09955682 -0.12773156 0.04020577 0.49052882 -0.011506169
0.036047272 0.006363227 -0.52803385 -0.070861205 -0.26472023 -0.1662802 0.6558637 0.008768846
-0.11449091 0.02289527 0.16170575 0.16519177 -0.20066707 0.032871477 0.68331915 0.003150392
-0.1486607 0.059596557 0.6608865 -0.025532126 -0.11829968 0.08422324 -0.29022634 -0.008760407
-0.031170197 0.08522588 -0.66087884 -0.22511886 -0.109428585 0.14673227 -0.06348193 -0.042795215
-0.0041917018 0.12245484 -0.13315128 -0.07730106 -0.045785844 0.054614928 0.15064591 0.016407972
0.02688654 0.09291336 -0.32670218 -0.14946808 0.0012261561 -0.06143763 0.38058358 0.157705

linear_layer_1.bias f4 [32]
00000000: 079d 00be 8005 513d 33a7 183e 5022 843d
00000010: b1b8 493e 3d35 853d 4ad6 3e3e 3fa5 4fbd
00000020: 4a82 273e 1075 433e a0ae 453e 82cf cf3c
00000030: 8a1c 20be 8dbe 043e 0436 563e d64a a1bd
00000040: 36fc 3abd 6c1c 973d 7626 f5bc b33e ac3c
00000050: f62a bc3c b8e9 a0bd 3583 3f3e 73cd 2b3e
00000060: 7181 b13d 333a 65bb d742 0c3d 5bed c53c
00000070: d14b b0bc 2a7d ad3a 482c 42bd bfc0 963d
-0.12559901 0.051030636 0.14907531 0.06451857 0.1969936 0.06504295 0.18636432 -0.0506947
0.16358295 0.19087625 0.19304895 0.025367502 -0.15635887 0.12963314 0.20919043 -0.07875602
-0.045650683 0.07378468 -0.029925566 0.021025991 0.022969704 -0.07857078 0.18702395 0.16777591
0.08667267 -0.0034977316 0.03424343 0.024161031 -0.021520527 0.0013236154 -0.04740551 0.07360982

linear_layer_2.weight f4 [32, 32]
00000000: e3ef 05be 61d1 023e 4d3d e8bb 319c 71be
00000010: 6345 4e3e 9811 9dbe 4872 153d 344d 7e3e
00000020: 99cf 943d 92d5 b83d 6da7 65be 4f89 d7bd
00000030: 7ab5 ae3d 9bf4 8b3d f5a0 f93d ab9f 063d
00000040: 34d1 68bd 6fb9 edbd 1ffe c03d 3789 ca3d
00000050: 9211 23bd c507 2e3d 72dc 1d3d d975 b63e
00000060: 9a76 dc3d 66b6 8b3d 9a54 c5bd 114a 20bd
00000070: 679b 7e3d 0e82 db3d bb29 0dbe 7a2a 103d
00000080: fc71 0b3e d66f bc3b d0f2 21be 13a7 803e
00000090: f5a9 1fbe cc1c 433e 976e 133e 2281 debd
000000a0: b71d e03c 9d5b 5abe 3d32 8a3d fd64 633d
000000b0: c209 4fbe bc4b 51be 627a 1dbe 073b 5f3e
000000c0: 6be2 863e ef49 743e cb54 39bd 0600 d7bd
000000d0: bd27 76bd e579 69be 148d 96bd 9eb1 51be
000000e0: d66a c8bc ecb5 173e 476e 203e 0845 3c3e
000000f0: 4333 5a3e 03cf 0d3d af26 ce3e 139c ebbc
00000100: ab27 9dbd 704e 24bd e07b 813d f97d 533d
00000110: b8f6 89be bdba 5f3e 875d 343e 33fb 30be
00000120: 16cc ed3d ddde 8e3d 0de3 373d f8ff d9bb
00000130: 304b d13d 4a3f f3ba 1975 ebbd 3ccd 243e
00000140: 21c0 06be 20de 603e b488 953d f8ea 47be
00000150: cd56 cc3d 4e42 dbbc a5bb d5bc 31bf 75be
00000160: 47fc 18be fd44 5bbd 7467 423c 4a90 d0bd
00000170: 9aa7 313d 4e0c 073d 90fd 453e 5fb0 2cbe
00000180: b5c4 c9bd 3ce8 0bbc dd27 0c3e 4aa5 b23c
00000190: c153 6d3e 1f8b aabd 6d7b 04be 3993 bc3d
000001a0: 6e99 6ebd 17d4 ca3d 5ee1 24bd 02c3 1e3d
000001b0: c3ef 1a3d 63d6 aa3c c290 043e 7444 d2bd
000001c0: b65e 1abe 4448 ecbd 4cb1 60bd 13ab 0e3d
000001d0: 72eb a03d 94b6 273e be88 493d e2c9 4e3e
000001e0: f015 98bb 019a 16be 37ec 473d 35d7 70be
000001f0: d81a cebd 964b a5bd 979d 0ebe a05a 5f3e
00000200: 0c91 d63c b4e2 203e 9706 9e3e d715 6fbe
00000210: 552c 8b3e 2e07 03be cd89 ddbd 95fc 1c3e
00000220: c5c9 c9bd 2928 3e3d 47f0 3abc 5c53 d13d
00000230: 9411 5f3d 86e7 023e 3d4e 083d 7c1c 96be
00000240: 9890 16be 3db9 11be 2278 dcbd 051e 853d
00000250: 8657 62bd 71d1 bf3d 049c 063d 2651 943e
00000260: 0044 0e3e 1f5c 7dbd 77da 3cbe 4c0e 743e
00000270: 7ffe 183e 9296 c13d d9c3 8cbe 45c7 c0bd
00000280: a124 1bbe 9f97 393e d486 113e 724a a7bd
00000290: 88f1 753e f821 59be 76b3 dabd 7f45 863d
000002a0: 22f6 083d 7927 f8bb 5eb6 d5bd 8b83 44bd
000002b0: a2de 2cbd e808 80bd d960 013d d285 97be
000002c0: 2266 21be 5bd2 c1be 3aad 8cbc ee65 ddbc
000002d0: eb80 7dbd 671f 023e 99f8 27be 7cef 9f3e
000002e0: 7884 9f3e 5adc 103b 7a3b ccbd 3bbf d73d
000002f0: 5de6 c5bd 41e3 013e 0727 16bd 622c a33b
00000300: 06d2 fcbd 98bf 8a3d d075 6c3b 9bbc a33d
00000310: 35b5 f9bd fa72 6c3d d97a fc3d 1e71 d8bd
00000320: 44e2 9fbd 74db b9bd 201f 0ebd 273d 763d
00000330: 502f a23d 4f60 8dbd dffb e6bc 07d7 373e
00000340: 72b9 b43d 0279 d03d aee1 f6bd 0737 153e
00000350: 0ed3 7dbd d9ed bbbb a779 79bd 3357 27be
00000360: c224 78be 05f1 173e d6cf 3b3c 6871 2dbe
00000370: a3cc 71be 5feb 06bd cc01 203d 4905 803c
00000380: 0ffa 5a3c 62bc ba3d 15d2 3abd 7a85 01bd
00000390: 7b0c cbbc 25cc 173e a433 02be b96c b8bb
000003a0: e81b 05bd 32e0 a8bc e6eb 06bd 7973 edbc
000003b0: 299e cbbc 7308 9c3d c289 113e 4ec5 f0bc
000003c0: bf6a b43b 1941 75bc ae3d f8bd 3e7e 43bd
000003d0: 3ca7 4fbd 2235 e5bd 934b 0fbd 9dc9 bfbd
000003e0: ad12 683b 32da 2ebe 4907 e6bd b8e6 a23d
000003f0: c8ce 7abd 44bb f03d 8641 803d be48 59be
-0.13079791 0.12775184 -0.0070873857 -0.23594739 0.20143656 -0.30677485 0.03648594 0.24834138
0.072661586 0.0902511 -0.22427149 -0.105242364 0.08530708 0.06833764 0.12188903 0.032867115
-0.056840137 -0.11607634 0.0942347 0.09889453 -0.03981168 0.04248788 0.03854031 0.35636786
0.10764809 0.06821899 -0.09635277 -0.039133135 0.062159922 0.10718165 -0.1378545 0.03519676
0.136177 0.0057506366 -0.15815282 0.25127468 -0.15592177 0.19053954 0.14397655 -0.10864474
0.02735792 -0.2132401 0.067478634 0.05551623 -0.20218566 -0.20439047 -0.15378717 0.21799861
0.26344618 0.23856328 -0.04524688 -0.10498051 -0.06009649 -0.22800405 -0.07351127 -0.20477912
-0.024465006 0.14815491 0.15667067 0.18385708 0.21308617 0.03462125 0.40263888 -0.028760945
-0.07673582 -0.040113866 0.063224554 0.05163381 -0.26946044 0.21848579 0.17613803 -0.17283325
0.11611192 0.069761015 0.044894267 -0.0066528283 0.10219419 -0.001855829 -0.11496944 0.16093916
-0.13159229 0.21959734 0.07301465 -0.19523227 0.099774934 -0.026765015 -0.026090452 -0.23998715
-0.14939986 -0.05353259 0.011865485 -0.10183771 0.043372728 0.03297072 0.19335008 -0.16864155
-0.09851972 -0.008539256 0.13687082 0.021807332 0.23176481 -0.083273165 -0.12937708 0.09207768
-0.05825179 0.09903734 -0.04025399 0.038760193 0.03782631 0.02085418 0.12945846 -0.10266963
-0.15075192 -0.11537221 -0.054856583 0.034831118 0.07857408 0.16378242 0.049202673 0.201942
-0.004641287 -0.14707185 0.048809256 -0.23519595 -0.10063714 -0.080710575 -0.13927303 0.21811914
0.02619221 0.1571148 0.30864403 -0.23348175 0.2718226 -0.12795708 -0.10817299 0.15330727
-0.098529376 0.04642502 -0.011409826 0.10220978 0.054460123 0.12783632 0.03327774 -0.29318607
-0.14703596 -0.14230819 -0.10765101 0.064998664 -0.05525925 0.0936612 0.03286363 0.2896816
0.13893127 -0.06185543 -0.18442713 0.23833579 0.14940833 0.09452547 -0.2749317 -0.09413008
-0.15150692 0.18124245 0.14211589 -0.08168496 0.24017918 -0.21204364 -0.10678761 0.06556224
0.033437856 -0.007573065 -0.104351744 -0.04797701 -0.042204507 -0.06251699 0.0315865 -0.29594284
-0.15761617 -0.378558 -0.017172445 -0.027026143 -0.061890524 0.12707292 -0.16403426 0.312374
0.31155753 0.0022103996 -0.09972282 0.10534521 -0.09663079 0.12684347 -0.036658313 0.004979656
-0.12344746 0.06774825 0.0036080964 0.07994958 -0.121927656 0.057726838 0.12328119 -0.105684504
-0.078068286 -0.090750605 -0.034697652 0.060116913 0.079191804 -0.06903135 -0.028196273 0.1795312
0.088244334 0.101793304 -0.12054764 0.14571773 -0.061968856 -0.0057351408 -0.060907032 -0.16341858
-0.24232772 0.14838035 0.011463126 -0.16937792 -0.23613219 -0.03293931 0.039064214 0.01562752
0.013365283 0.091179624 -0.045610506 -0.031621434 -0.024786225 0.14823969 -0.12715012 -0.005628195
-0.032497317 -0.020614717 -0.032939814 -0.028985726 -0.02485569 0.07618799 0.14212707 -0.029390957
0.005505889 -0.014969134 -0.121211395 -0.047727816 -0.050696597 -0.11191775 -0.034984183 -0.093646266
0.0035411522 -0.17075422 -0.11231858 0.07954162 -0.06123236 0.11754468 0.062624976 -0.21219155

linear_layer_2.bias f4 [32]
00000000: f153 6f3e 61c6 41be 0bf9 73bd 76fd 0c3d
00000010: 08af e33d c6fe 193e 8d89 923d c00d e23c
00000020: 06e8 253d 998d 7d3c a319 82bd aab7 263d
00000030: 3bc6 9ebd 26fd 4dbe dd2f b83b 2b44 a13d
00000040: 10a5 c73d a3e0 b93d 3b60 b53d d18a ca3b
00000050: 6c56 86bc 1f0e fe3d 6f9d 7d3e 38b3 ce3d
00000060: 9aaa e83d b3aa d43d 85cc 103c 58d6 513d
00000070: d8aa dc3d 29cc 783e 5b11 8e3d 59e0 4c3e
0.23371865 -0.18923332 -0.059563678 0.034421407 0.11117369 0.15038595 0.07155142 0.027594447
0.040504478 0.015475654 -0.06352546 0.0407025 -0.07752653 -0.201161 0.00562094 0.0787433
0.0974828 0.09076049 0.08856245 0.006181099 -0.016398631 0.12405037 0.24767087 0.10092777
0.11360665 0.10384121 0.008837824 0.051229805 0.10774773 0.24296631 0.06936904 0.20007457

mean_action_layer.weight f4 [1, 32]
00000000: 02b4 96bd adc9 9d3d 5bd3 b53c 94b9 d9bd
00000010: 7f86 ffbd 282e 08be 6f84 fa3d 047a f7ba
00000020: abeb cabd feb0 dcbd 541a d9bd f457 76be
00000030: d27e 243c 3c2e 9fbe f786 8d3b 9c35 873e
00000040: c7dc 9bbd d92c 57bd 4e12 07bd 72bd 183e
00000050: ceb6 e03d 1000 a2bd f041 443d 71a9 0b3e
00000060: 31f4 e5bb d1e8 99bd 2ebd 463e 7423 bbbd
00000070: 2b50 9dbd edb4 a8bd c655 1cbe 010d 743d
-0.073585525 0.07704482 0.022195509 -0.10631099 -0.12476825 -0.13298857 0.12232291 -0.0018880968
-0.09908231 -0.10775946 -0.10600725 -0.24056989 0.010040002 -0.31089962 0.0043190676 0.26408088
-0.07610469 -0.052533004 -0.03297644 0.14916018 0.10972367 -0.07910168 0.047914445 0.13638856
-0.0070176353 -0.07515109 0.19408104 -0.091376215 -0.076813065 -0.08237634 -0.15267095 0.059582714
