envs/runs/22-03-17_09-31-46-056018_PPO/checkpoints/8000_policy.pt (torch, 7251 bytes, 5 tensors)

linear_layer_1.weight f4 [32, 4]
0	0x3e39833a	0.18116465
1	0xbc0be9cd	-0.008539629
2	0xbeeac7d5	-0.45855585
3	0xbd86b9ba	-0.06578393
4	0x3cf47681	0.029841663
5	0xbe7f5b9f	-0.24937294
6	0x3f194fb3	0.59887236
7	0x3ce31e4b	0.027724406
8	0xbca6b9cb	-0.020352265
9	0xbd1c8e41	-0.0382216
10	0x3f0702a6	0.52738416
11	0x3e16890d	0.14700718
12	0xbda37bb9	-0.079825826
13	0x3dc7b90d	0.097520925
14	0xbf281f69	-0.6567293
15	0xbde9f438	-0.11423534
16	0xbe999783	-0.29998407
17	0xbea21a6c	-0.31660783
18	0x3f801896	1.0007503
19	0x3d98ef7b	0.07467552
20	0x3d858130	0.06518781
21	0x3dcf33d7	0.101173095
22	0xbf34ec6a	-0.7067324
23	0xbe010741	-0.12600423
24	0x3ea04842	0.31305128
25	0x3d2646c4	0.04059483
26	0xbf2be9c1	-0.67153555
27	0x3ca3cdfb	0.01999568
28	0xbd822fab	-0.06356748
29	0xbd8b93aa	-0.06815274
30	0x3ee64bb1	0.44979623
31	0x3e178820	0.14798021
32	0x3d8956bb	0.06705996
33	0x3be26f95	0.0069102743
34	0xbf098d60	-0.53731346
35	0xbe1a849b	-0.15089647
36	0x3de53256	0.111912414
37	0xbe160bee	-0.14652988
38	0x3ed3611e	0.41285032
39	0x3e94fdcc	0.29099882
40	0x3de232a8	0.11044818
41	0x3de755ad	0.11295638
42	0xbea27542	-0.31730086
43	0xbe423e4f	-0.18969081
44	0xbccfa645	-0.025347838
45	0xbd827b22	-0.06371142
46	0xbece2bbf	-0.4026775
47	0xbd732786	-0.059363864
48	0xbd57c745	-0.052680273
49	0x3d8202e7	0.0634821
50	0x3ebdd580	0.3707695
51	0x3cbaf4fb	0.022821894
52	0xbc8e2975	-0.017353753
53	0xbd7758b6	-0.060387336
54	0x3f16fbc9	0.58977944
55	0x3e03d113	0.12872724
56	0xbde0c6ba	-0.10975404
57	0x3c76729b	0.0150419725
58	0x3f26b38f	0.65117735
59	0x3debf6a7	0.115216546
60	0x3db94aa0	0.09047437
61	0x3cf32daa	0.02968486
62	0xbf25d15d	-0.6477259
63	0xbe018068	-0.1264664
64	0x3d5d63d8	0.054050297
65	0x3c84462a	0.016146738
66	0xbf0e4b9e	-0.5558413
67	0xbe252379	-0.16126813
68	0x3f0727a2	0.5279485
69	0x3d54a343	0.05191351
70	0xbf5524f5	-0.83259517
71	0xbd397e39	-0.04528639
72	0x3cd20744	0.02563823
73	0xbde9fad2	-0.11424793
74	0x3ea362a8	0.31911206
75	0x3dbec274	0.09314433
76	0xbe0286d4	-0.12746745
77	0x3d0f0c93	0.0349241
78	0x3f01486c	0.5050113
79	0xbc17c4a0	-0.009263188
80	0x3d1824fe	0.037144653
81	0x3c3fcddc	0.011706796
82	0xbf0b160b	-0.5433051
83	0xbd97714b	-0.07394656
84	0xbe87b7a0	-0.26507282
85	0xbe3b1400	-0.18269348
86	0x3f2e8b32	0.68181145
87	0x39f2501a	0.00046217517
88	0xbdf3ff9a	-0.119139865
89	0x3c9d3fee	0.019195523
90	0x3e41add7	0.18913971
91	0x3e2e6638	0.17031181
92	0xbe4fa07e	-0.20276067
93	0x3d03a801	0.032142643
94	0x3f33d4c7	0.7024655
95	0x3c2d9359	0.010594212
96	0xbe1b12d3	-0.151439
97	0x3d6ce486	0.057835124
98	0x3f2e0a0d	0.67984086
99	0xbc9e8ef1	-0.01935527
100	0xbdd1b65e	-0.10239862
101	0x3dacf004	0.08444217
102	0xbe871408	-0.2638247
103	0xbba21a9e	-0.0049470207
104	0xbcd2f8c8	-0.025753394
105	0x3dca3cc0	0.098748684
106	0xbf2e16ac	-0.68003345
107	0xbe620081	-0.22070505
108	0xbdd3c753	-0.103407525
109	0x3e12fe2a	0.14354768
110	0xbd2cf2bd	-0.04222368
111	0xbd2445c1	-0.040105585
112	0x3c679010	0.014133468
113	0x3e03ff60	0.12890387
114	0xbe0d720f	-0.13813041
115	0xbd93cf89	-0.072173186
116	0xbd1b17ea	-0.037864603
117	0x3d8801d8	0.06640977
118	0x3e221f43	0.15832238
119	0x3cfe466c	0.03103944
120	0x3d001aa1	0.031275395
121	0x3dce02a2	0.10059096
122	0xbeb22d50	-0.34800196
123	0xbe193796	-0.1496261
124	0xbbf04320	-0.0073322207
125	0xbd9547d7	-0.07289093
126	0x3ecf6a43	0.4051076
127	0x3e1e0bc6	0.15434179

linear_layer_1.bias f4 [32]
0	0xbdfeec33	-0.12447395
1	0x3d3aad7c	0.045575604
2	0x3e17ca92	0.14823368
3	0x3d819af1	0.06328381
4	0x3e4438eb	0.19162337
5	0x3d818056	0.06323306
6	0x3e3a8b75	0.18217261
7	0xbd484a19	-0.04889879
8	0x3e24f903	0.16110615
9	0x3e414432	0.1887367
10	0x3e424da5	0.18974932
11	0x3c91c4d4	0.01779405
12	0xbe15c30c	-0.14625186
13	0x3e031f87	0.12804995
14	0x3e54e095	0.20788796
15	0xbd9f9ad4	-0.07793203
16	0xbd32a95c	-0.043618545
17	0x3d92f930	0.07176435
18	0xbccf8a0a	-0.025334377
19	0x3cbb0091	0.022827419
20	0x3cb003dc	0.021486215
21	0xbd99133b	-0.07474371
22	0x3e3bd06c	0.18341225
23	0x3e2ba9ff	0.16764067
24	0x3daed409	0.08536536
25	0x3c3dac05	0.011576657
26	0x3d140af3	0.036143254
27	0x3ced8c40	0.02899754
28	0xbbc0f489	-0.005888526
29	0x3b20d40a	0.0024540448
30	0xbd3c97a9	-0.046043072
31	0x3d88f5f4	0.06687537

linear_layer_2.weight f4 [32, 32]
0	0xbe04a35e	-0.12952945
1	0x3e08ba20	0.13352251
2	0xbb9ba742	-0.0047501633
3	0xbe7c5e6f	-0.24645399
4	0x3e58c9e7	0.2117077
5	0xbea0fea0	-0.31444263
6	0x3d14c6c0	0.036322355
7	0x3e83a14b	0.25708994
8	0x3d8ee0c9	0.06976468
9	0x3dc0a031	0.09405554
10	0xbe6a00fe	-0.22851941
11	0xbdd3ee54	-0.10348192
12	0x3daf42b2	0.08557643
13	0x3d911657	0.07084339
14	0x3dfc81fb	0.12329479
15	0x3d0257fb	0.031822186
16	0xbd657585	-0.05602028
17	0xbdf29c71	-0.11846245
18	0x3dd46b4c	0.10372028
19	0x3db9a41a	0.09064503
20	0xbd28e339	-0.04123232
21	0x3d47a37a	0.048739888
22	0x3d24e0de	0.040253513
23	0x3eb595ff	0.35466
24	0x3dcc5b1f	0.099783175
25	0x3d8558d7	0.065110855
26	0xbdcff29e	-0.101536974
27	0xbd449a9b	-0.047999006
28	0x3d648db3	0.055799197
29	0x3ddc5320	0.10758042
30	0xbe120744	-0.14260584
31	0x3d206326	0.039157055
32	0x3e031a78	0.12803066
33	0xbbf804cc	-0.007568931
34	0xbe1e085a	-0.15432873
35	0x3e81fa30	0.2538619
36	0xbe314fee	-0.17315647
37	0x3e4764be	0.19472024
38	0x3e16dcaf	0.14732622
39	0xbde027f1	-0.10945118
40	0x3ccaa3d3	0.02473632
41	0xbe57d263	-0.2107635
42	0x3d8c0834	0.06837502
43	0x3d3e677c	0.04648541
44	0xbe4cc2a3	-0.19996123
45	0xbe4ec09a	-0.20190659
46	0xbe192638	-0.14955986
47	0x3e56e591	0.2098601
48	0x3e81745d	0.2528409
49	0x3e78e5b0	0.24306369
50	0xbd465c2a	-0.04842774
51	0xbdc4529c	-0.09586069
52	0xbd8870d1	-0.06662143
53	0xbe78be6e	-0.24291393
54	0xbd88f9f1	-0.066882975
55	0xbe4e8d58	-0.20171106
56	0xbc655367	-0.013996935
57	0x3e209d86	0.1568509
58	0x3e1b82cd	0.15186615
59	0x3e4dbcb8	0.20091522
60	0x3e645374	0.2229746
61	0x3d22f684	0.039785877
62	0x3ecc004a	0.3984397
63	0xbcca5fb8	-0.024703845
64	0xbd9f16b1	-0.07768
65	0xbd311a2a	-0.043237843
66	0x3d74e959	0.05979285
67	0x3d6a0f78	0.05714366
68	0xbe8c27ad	-0.2737402
69	0x3e628d9a	0.22124329
70	0x3e316107	0.17322169
71	0xbe35bc32	-0.17747572
72	0x3def7c64	0.116936475
73	0x3d84c8ee	0.06483637
74	0x3d3b4866	0.04572334
75	0xbbe34ce8	-0.006936658
76	0x3dd47292	0.10373415
77	0xbbb19a6e	-0.005420021
78	0xbdf03202	-0.11728288
79	0x3e260f01	0.16216661
80	0xbe0654b9	-0.13118257
81	0x3e5ea5e5	0.21742971
82	0x3d91fea7	0.07128649
83	0xbe3da9c2	-0.18521789
84	0x3dcc6f4b	0.09982165
85	0xbce28158	-0.027649567
86	0xbce80ad2	-0.028325472
87	0xbe749971	-0.23886658
88	0xbe12308f	-0.14276336
89	0xbd4ed196	-0.050492845
90	0x3c810d75	0.015753487
91	0xbdc2df88	-0.095152915
92	0x3d37a167	0.04483166
93	0x3d0836e0	0.033255458
94	0x3e4a1cfc	0.19737619
95	0xbe306574	-0.17226201
96	0xbdc88d11	-0.09792531
97	0xbb3213dd	-0.0027172484
98	0x3e0f601a	0.14001504
99	0x3c5160bf	0.012779414
100	0x3e77d9a2	0.24204114
101	0xbdb7dbe4	-0.08977488
102	0xbe039fb3	-0.12853889
103	0x3dccd644	0.100018054
104	0xbd771619	-0.06032381
105	0x3dd44bed	0.10366044
106	0xbd323f19	-0.043517206
107	0x3d25d268	0.040483862
108	0x3d184556	0.0371755
109	0x3cc5f3a6	0.024164032
110	0x3e06d678	0.13167751
111	0xbdd53887	-0.10411172
112	0xbe19cd4d	-0.15019722
113	0xbdef215c	-0.11676285
114	0xbd3f7c17	-0.0467492
115	0x3cd406cb	0.025882145
116	0x3d9f22e0	0.07770324
117	0x3e2d2854	0.16909915
118	0x3d5390fd	0.051651943
119	0x3e4ded24	0.20109993
120	0xbc408690	-0.011750832
121	0xbe19fb38	-0.15037239
122	0x3d33c61b	0.0438901
123	0xbe79ad64	-0.2438255
124	0xbdda68ed	-0.10664544
125	0xbda4655f	-0.080271475
126	0xbe13f580	-0.1444912
127	0x3e63efbf	0.22259425
128	0x3cd97d4d	0.026549006
129	0x3e26cd22	0.1628919
130	0x3e9fb2ca	0.31191093
131	0xbe79b825	-0.24386652
132	0x3e9082e6	0.28224868
133	0xbe0a56b6	-0.1350964
134	0xbddc4b28	-0.107565224
135	0x3e2594b1	0.16170003
136	0xbdce8aa0	-0.10085034
137	0x3d515b85	0.05111267
138	0xbc75cd95	-0.015002628
139	0x3dd4cd6d	0.10390744
140	0x3d5d9eb3	0.054106425
141	0x3e0667a0	0.13125467
142	0x3d11cb3d	0.035594214
143	0xbe9717c5	-0.29510322
144	0xbe16894d	-0.14700814
145	0xbe137972	-0.14401796
146	0xbdcadd0c	-0.099054426
147	0x3d6723c7	0.056430604
148	0xbd6816ab	-0.056662243
149	0x3dca3438	0.09873241
150	0x3d116a96	0.03550204
151	0x3e93f2fa	0.28896314
152	0x3e076897	0.13223492
153	0xbd8582a3	-0.065190576
154	0xbe42af8c	-0.19012278
155	0x3e6b10cc	0.22955626
156	0x3e1305fd	0.14357753
157	0x3dc4ac7d	0.09603212
158	0xbe8facdc	-0.2806157
159	0xbdb71132	-0.089388266
160	0xbe1a905f	-0.15094136
161	0x3e3f9bd8	0.18711793
162	0x3e14d0ff	0.1453285
163	0xbdb88469	-0.0900963
164	0x3e803264	0.25038445
165	0xbe5f1eac	-0.21789044
166	0xbdd84542	-0.10560085
167	0x3d953fe4	0.07287577
168	0x3d024a58	0.03180918
169	0xbb3ad7ea	-0.0028510042
170	0xbddb7f5c	-0.10717651
171	0xbd3d0aa1	-0.046152715
172	0xbd313fe5	-0.043273825
173	0xbd723833	-0.059135627
174	0x3d0ac23e	0.03387665
175	0xbe983b82	-0.297329
176	0xbe20cb1d	-0.15702482
177	0xbec24b3a	-0.37948018
178	0xbc1898ea	-0.009313801
179	0xbd166357	-0.03671583
180	0xbd7f0caf	-0.062267955
181	0x3e0712f2	0.13190821
182	0xbe256c28	-0.1615454
183	0x3e9f889b	0.3115891
184	0x3e9bca20	0.30427647
185	0xbab47cd5	-0.0013770113
186	0xbdd5ba90	-0.104359746
187	0x3dc59d23	0.09649112
188	0xbdd28a71	-0.10280312
189	0x3e01e14a	0.12683597
190	0xbd2b506d	-0.041824747
191	0x3c1a926a	0.009434322
192	0xbdfe93fa	-0.12430568
193	0x3d73dba3	0.059535634
194	0x3a4470ce	0.0007493616
195	0x3daed8dd	0.08537457
196	0xbe095b10	-0.13413644
197	0x3d7c343a	0.061573245
198	0x3df9108b	0.121613584
199	0xbde0c29b	-0.10974618
200	0xbda19d0a	-0.07891281
201	0xbdc2d457	-0.09513157
202	0xbd0a90c6	-0.033829473
203	0x3d688781	0.05676985
204	0x3da842e0	0.082158804
205	0xbd943126	-0.07235937
206	0xbcf73e09	-0.030180948
207	0x3e383ac0	0.17991161
208	0x3db0b9a3	0.086291574
209	0x3dd0adc4	0.10189393
210	0xbe0215c2	-0.12703612
211	0x3e1fc1e8	0.15601313
212	0xbd834534	-0.06409684
213	0xbc30f420	-0.010800391
214	0xbd7fa708	-0.062415153
215	0xbe2739af	-0.16330598
216	0xbe713835	-0.23556598
217	0x3e1e2293	0.15442877
218	0x3c60069b	0.01367345
219	0xbe21978a	-0.15780464
220	0xbe6a4b87	-0.22880374
221	0xbcf96390	-0.030442983
222	0x3d31eb4b	0.043437283
223	0x3c47c624	0.0121932365
224	0x3c67a6f4	0.014138926
225	0x3db97865	0.090561666
226	0xbd4c3117	-0.049851503
227	0xbcfbb0ab	-0.03072389
228	0xbce02ffc	-0.02736663
229	0x3e1c3f5e	0.15258548
230	0xbe036d2e	-0.12834617
231	0xbc865e0d	-0.016402269
232	0xbcf1d85a	-0.02952211
233	0xbcd40087	-0.025879158
234	0xbcee48a3	-0.02908737
235	0xbcf3f42f	-0.029779522
236	0xbcdf05b1	-0.027224394
237	0x3d9585cc	0.0730091
238	0x3e0e23d8	0.13880861
239	0xbcf06541	-0.029345157
240	0x3b9f78dc	0.0048667025
241	0xbc6f2fe7	-0.014598823
242	0xbdf36736	-0.1188492
243	0xbd40e82e	-0.047096424
244	0xbd46cfa7	-0.048537876
245	0xbdead0a7	-0.114655785
246	0xbd29bb7b	-0.04143856
247	0xbdbeee64	-0.09322813
248	0x3bd58c55	0.006516973
249	0xbe36120b	-0.1778032
250	0xbde2464f	-0.110485666
251	0x3d97656e	0.07392393
252	0xbd88680d	-0.06660471
253	0x3ddd8448	0.10816246
254	0x3d891ac2	0.06694557
255	0xbe5e0c72	-0.21684435

linear_layer_2.bias f4 [32]
0	0x3e6eacc5	0.23308094
1	0xbe41062e	-0.18850014
2	0xbd79faef	-0.061030325
3	0x3d0e7888	0.034782916
4	0x3de40493	0.11133685
5	0x3e1aaee8	0.15105784
6	0x3d8ecf5c	0.069731444
7	0x3ce22117	0.02760367
8	0x3d2bb2fb	0.041918736
9	0x3c800deb	0.015631637
10	0xbd76c66c	-0.060247824
11	0x3d2a5221	0.04158223
12	0xbda64349	-0.081183024
13	0xbe4c7978	-0.19968212
14	0x3b8d81e4	0.0043184627
15	0x3d9c59ff	0.07634353
16	0x3dc6e6b4	0.09711972
17	0x3db6d28e	0.08926879
18	0x3db066bb	0.08613344
19	0x3bd532fa	0.006506321
20	0xbc810e47	-0.015753878
21	0x3dfcab60	0.12337375
22	0x3e789e03	0.24279027
23	0x3dc86208	0.09784323
24	0x3dd38016	0.10327165
25	0x3dd3bba1	0.10338522
26	0x3bdd42e2	0.006752358
27	0x3d5935d5	0.053029854
28	0x3ddbadb1	0.107264884
29	0x3e786981	0.24258997
30	0x3d8f656e	0.07001768
31	0x3e495791	0.1966231

mean_action_layer.weight f4 [1, 32]
0	0xbd9db013	-0.07699599
1	0x3da25fa7	0.079284005
2	0x3ce2ba23	0.027676648
3	0xbde4a32a	-0.111639336
4	0xbe03f4ff	-0.12886427
5	0xbe0a3139	-0.1349534
6	0x3de0cedf	0.109769575
7	0x3b24735b	0.0025093171
8	0xbde44eaa	-0.111478165
9	0xbde938a7	-0.11387759
10	0xbdd0a267	-0.10187226
11	0xbe77d203	-0.24201207
12	0xbb8cb0d0	-0.0042935386
13	0xbe9eb130	-0.30994558
14	0xbc2a0435	-0.01037698
15	0x3e873e3d	0.26414672
16	0xbda3485e	-0.07972787
17	0xbd632aef	-0.055460867
18	0xbd1e16f0	-0.038596094
19	0x3e1da3cd	0.15394516
20	0x3de4a55c	0.11164352
21	0xbdac7f74	-0.08422747
22	0x3d472694	0.048620775
23	0x3e0b02b6	0.13575253
24	0xbbfb547f	-0.007669985
25	0xbda22d44	-0.0791879
26	0x3e45c452	0.19313172
27	0xbdb9099e	-0.090350375
28	0xbd9f9103	-0.07791331
29	0xbdac0240	-0.08398867
30	0xbe1f0aa8	-0.15531409
31	0x3d77a3d5	0.060458977
